model_training/models/quantized/lstm_2024_08_20_18_12/lstm_2024_08_20_18_12.tflite (tflite, 101424 bytes, 10 tensors)

tfl.pseudo_qconst1 i1 [1, 20] scale=0.004047685 zero_point=0
00000000: d04b 3950 15a9 823b a220 643d 108d 0978
00000010: d83e 9b7f
-0.19428888 0.30357635 0.23071803 0.32381478 0.08500138 -0.3521486 -0.5100083 0.2388134
-0.38048238 0.12952591 0.4047685 0.24690877 0.06476296 -0.46548375 0.036429163 0.48572218
-0.16190739 0.25095645 -0.40881616 0.51405597

tfl.pseudo_qconst3 i1 [20, 60]
00000000: 748f d9ba 29a9 f1dd 055d f763 090b 5ced
00000010: f216 038e 4f2c 816a 88ae 3285 4334 4e31
00000020: acf4 cf18 b8b0 ca1e 9f63 0378 e01c f2b8
00000030: b8fe 3547 ab46 3542 758b d18c 94b9 939a
00000040: a102 a3e4 9ed3 3c41 1ead cc3e 08fa 5149
00000050: 5650 198d e4d3 92c4 7121 c3dc f30a 93b3
00000060: 314a 4605 1803 b8ef 6667 07d5 6fd5 7505
00000070: 5614 67cb d07f dbc1 f577 5c2f 7961 a6ef
00000080: 1bd4 d38d b5e4 9b36 435a a41e 5fcc a63b
00000090: 56a5 e8aa d949 5527 3640 556a 48d0 d164
000000a0: 0a13 4b21 a6ed 5e7f a18a dd3d ff47 f28e
000000b0: 9a6e 46b5 d2ba ed3f f9f3 d533 f992 a433
000000c0: 44f7 1bea 2442 6ef8 baec ae9a 7790 8d8f
000000d0: 6e7a cc32 d134 9bbf 0f44 547f 595f b095
000000e0: ce0e 1274 8e8f 3526 c9e2 7fd4 7a41 b7e3
000000f0: f2e3 c507 35f4 9fd6 673d a56c a9cd 4a0c
116 -113 -39 -70 41 -87 -15 -35
5 93 -9 99 9 11 92 -19
-14 22 3 -114 79 44 -127 106
-120 -82 50 -123 67 52 78 49
-84 -12 -49 24 -72 -80 -54 30
-97 99 3 120 -32 28 -14 -72
-72 -2 53 71 -85 70 53 66
117 -117 -47 -116 -108 -71 -109 -102
-95 2 -93 -28 -98 -45 60 65
30 -83 -52 62 8 -6 81 73
86 80 25 -115 -28 -45 -110 -60
113 33 -61 -36 -13 10 -109 -77
49 74 70 5 24 3 -72 -17
102 103 7 -43 111 -43 117 5
86 20 103 -53 -48 127 -37 -63
-11 119 92 47 121 97 -90 -17
27 -44 -45 -115 -75 -28 -101 54
67 90 -92 30 95 -52 -90 59
86 -91 -24 -86 -39 73 85 39
54 64 85 106 72 -48 -47 100
10 19 75 33 -90 -19 94 127
-95 -118 -35 61 -1 71 -14 -114
-102 110 70 -75 -46 -70 -19 63
-7 -13 -43 51 -7 -110 -92 51
68 -9 27 -22 36 66 110 -8
-70 -20 -82 -102 119 -112 -115 -113
110 122 -52 50 -47 52 -101 -65
15 68 84 127 89 95 -80 -107
-50 14 18 116 -114 -113 53 38
-55 -30 127 -44 122 65 -73 -29
-14 -29 -59 7 53 -12 -97 -42
103 61 -91 108 -87 -51 74 12

tfl.pseudo_qconst8 i1 [90, 2]
00000000: 4f7f 810d f07f 7fa4 3481 8169 81b3 1081
00000010: 7f74 d681 7fd0 b081 7f88 cd7f 4f81 7fc8
00000020: 7f05 81f7 8136 7fcc 607f 811e ce81 d181
00000030: f27f 7881 81c4 b381 8f81 810a 7f0b 7f9e
00000040: 81ab 815c 8197 7f5f f681 7f3a c27f 0d81
00000050: 8140 3481 8c7f 7fe5 7fa0 8183 ab7f 81d9
00000060: 7fd1 814d 7f81 813d 8192 817c 7f78 c081
00000070: 6781 7f9f 6a7f 3d81 787f 7f08 815a 7fe4
00000080: b181 2d7f 8107 7f8c bb7f 7f9f 6d81 1681
00000090: 81f7 819e 812a 7d81 8156 4a7f 7a81 f97f
000000a0: 7fce ec7f 7981 7f5b 81ab d07f 3e81 8143
000000b0: da7f 81d2
79 127 -127 13 -16 127 127 -92
52 -127 -127 105 -127 -77 16 -127
127 116 -42 -127 127 -48 -80 -127
127 -120 -51 127 79 -127 127 -56
127 5 -127 -9 -127 54 127 -52
96 127 -127 30 -50 -127 -47 -127
-14 127 120 -127 -127 -60 -77 -127
-113 -127 -127 10 127 11 127 -98
-127 -85 -127 92 -127 -105 127 95
-10 -127 127 58 -62 127 13 -127
-127 64 52 -127 -116 127 127 -27
127 -96 -127 -125 -85 127 -127 -39
127 -47 -127 77 127 -127 -127 61
-127 -110 -127 124 127 120 -64 -127
103 -127 127 -97 106 127 61 -127
120 127 127 8 -127 90 127 -28
-79 -127 45 127 -127 7 127 -116
-69 127 127 -97 109 -127 22 -127
-127 -9 -127 -98 -127 42 125 -127
-127 86 74 127 122 -127 -7 127
127 -50 -20 127 121 -127 127 91
-127 -85 -48 127 62 -127 -127 67
-38 127 -127 -46

tfl.pseudo_qconst10 i1 [90, 30]
00000000: 46b5 ea5f 3d12 3712 7f03 0603 ed11 d5db
00000010: ea2a 46d1 f40a e41a 3366 ed59 182e d4a6
00000020: b468 9921 3203 812f 28d4 c638 e669 650a
00000030: 19b3 9c21 8c01 dd48 bb8e 0ec0 a002 1104
00000040: 24db d0be fcf1 dc2a 2ad1 2302 13f0 1ef8
00000050: 36ea be1a 141c 1402 8120 30dc 47fc 81e9
00000060: f0fe 1999 0f16 152a fc09 c737 1f38 15a9
00000070: d6da 0701 d0df e571 0bda eca2 21ef faea
00000080: 814d 33ee 11db 4d01 c9fb f6b6 bae6 f640
00000090: c83b b3b7 d70d 2aa7 b419 0112 d73a 1ceb
000000a0: fb3f 0af9 44e7 0aed f71a 81d5 e1cd 0dee
000000b0: 364f 1dac e4fe 333c 9870 fd63 12fb 2df6
000000c0: 30df ee47 d17f ba8c ee3d 02f5 f3cd 57ce
000000d0: ece6 1503 3935 fdf7 2416 d21d dbf0 2f17
000000e0: f60a 8124 070f f3e7 b81b 4a1a 0ffa 08c0
000000f0: 261c ec21 c751 dae2 df30 4cbf 1ce1 d12e
70 -75 -22 95 61 18 55 18
127 3 6 3 -19 17 -43 -37
-22 42 70 -47 -12 10 -28 26
51 102 -19 89 24 46 -44 -90
-76 104 -103 33 50 3 -127 47
40 -44 -58 56 -26 105 101 10
25 -77 -100 33 -116 1 -35 72
-69 -114 14 -64 -96 2 17 4
36 -37 -48 -66 -4 -15 -36 42
42 -47 35 2 19 -16 30 -8
54 -22 -66 26 20 28 20 2
-127 32 48 -36 71 -4 -127 -23
-16 -2 25 -103 15 22 21 42
-4 9 -57 55 31 56 21 -87
-42 -38 7 1 -48 -33 -27 113
11 -38 -20 -94 33 -17 -6 -22
-127 77 51 -18 17 -37 77 1
-55 -5 -10 -74 -70 -26 -10 64
-56 59 -77 -73 -41 13 42 -89
-76 25 1 18 -41 58 28 -21
-5 63 10 -7 68 -25 10 -19
-9 26 -127 -43 -31 -51 13 -18
54 79 29 -84 -28 -2 51 60
-104 112 -3 99 18 -5 45 -10
48 -33 -18 71 -47 127 -70 -116
-18 61 2 -11 -13 -51 87 -50
-20 -26 21 3 57 53 -3 -9
36 22 -46 29 -37 -16 47 23
-10 10 -127 36 7 15 -13 -25
-72 27 74 26 15 -6 8 -64
38 28 -20 33 -57 81 -38 -30
-33 48 76 -65 28 -31 -47 46

tfl.pseudo_qconst13 i1 [90, 2]
00000000: 812b 077f ca7f 81ce 8186 957f 7f5d 8138
00000010: a381 6981 8119 81a8 81b4 81e5 7fe7 1e81
00000020: 7f16 8120 c081 8137 3881 b27f ae7f 8177
00000030: 3b7f 7f47 4381 81f5 0e81 b47f e281 2e7f
00000040: 977f b181 7f68 4f81 81a0 857f 81d9 7fbd
00000050: 7fdc 7fa7 9b7f 815a 7fa4 812f 5c81 81d0
00000060: 817d 987f 3781 4e7f 7f88 816a 7f66 6e81
00000070: 127f 527f d881 5981 7f2d 2b81 7f40 6981
00000080: 7fa6 7f98 7f42 8120 dd81 8169 7f7c 7f50
00000090: 1d81 7f95 7fba 2181 8156 b681 6281 b881
000000a0: 7ff3 8179 8c81 c981 7fba 814e 4d7f 81e7
000000b0: 8c81 1981
-127 43 7 127 -54 127 -127 -50
-127 -122 -107 127 127 93 -127 56
-93 -127 105 -127 -127 25 -127 -88
-127 -76 -127 -27 127 -25 30 -127
127 22 -127 32 -64 -127 -127 55
56 -127 -78 127 -82 127 -127 119
59 127 127 71 67 -127 -127 -11
14 -127 -76 127 -30 -127 46 127
-105 127 -79 -127 127 104 79 -127
-127 -96 -123 127 -127 -39 127 -67
127 -36 127 -89 -101 127 -127 90
127 -92 -127 47 92 -127 -127 -48
-127 125 -104 127 55 -127 78 127
127 -120 -127 106 127 102 110 -127
18 127 82 127 -40 -127 89 -127
127 45 43 -127 127 64 105 -127
127 -90 127 -104 127 66 -127 32
-35 -127 -127 105 127 124 127 80
29 -127 127 -107 127 -70 33 -127
-127 86 -74 -127 98 -127 -72 -127
127 -13 -127 121 -116 -127 -55 -127
127 -70 -127 78 77 127 -127 -25
-116 -127 25 -127

tfl.pseudo_qconst15 i1 [90, 30]
00000000: 1903 b175 1cd2 18f0 e157 fee2 05e4 d981
00000010: 3800 e8dc f426 c339 1d2d ff3d 393f f27f
00000020: f0cd cf12 4a1e ad06 52f4 0826 01fe 9ce7
00000030: 1715 30ff 0bec 2900 002c 3c2a 10fa 36f7
00000040: ec42 d06b 886d ff31 e139 3ee1 3dfc 3f81
00000050: adf2 f656 f015 c6c2 11fa c526 e926 2503
00000060: 9d26 0152 0ddf ca77 9f31 f87a 0545 ac16
00000070: 903b 40dc 6b8a 7ffd fe0f 81df deba 3fad
00000080: e249 af10 0610 3441 4c23 1ed0 e3c5 4fcb
00000090: e318 6a9f e5f3 2a27 c2c3 151d f0f6 3820
000000a0: 6b00 cadd 00d3 7f2b f70f 7623 51f7 d808
000000b0: bd24 efbf 01fb e80b 51d1 dcad fef5 500b
000000c0: 0c2f ff03 8124 c4ac 1012 02bf f1ed d1c3
000000d0: 2813 f6e1 33bc 330f e4d9 0c21 29ca 4c81
000000e0: 2247 42cc 1b12 b3f7 693a 1f6d e60b 54eb
000000f0: f9d1 3427 f4ff 3036 4ee4 b922 35e6 c0c5
25 3 -79 117 28 -46 24 -16
-31 87 -2 -30 5 -28 -39 -127
56 0 -24 -36 -12 38 -61 57
29 45 -1 61 57 63 -14 127
-16 -51 -49 18 74 30 -83 6
82 -12 8 38 1 -2 -100 -25
23 21 48 -1 11 -20 41 0
0 44 60 42 16 -6 54 -9
-20 66 -48 107 -120 109 -1 49
-31 57 62 -31 61 -4 63 -127
-83 -14 -10 86 -16 21 -58 -62
17 -6 -59 38 -23 38 37 3
-99 38 1 82 13 -33 -54 119
-97 49 -8 122 5 69 -84 22
-112 59 64 -36 107 -118 127 -3
-2 15 -127 -33 -34 -70 63 -83
-30 73 -81 16 6 16 52 65
76 35 30 -48 -29 -59 79 -53
-29 24 106 -97 -27 -13 42 39
-62 -61 21 29 -16 -10 56 32
107 0 -54 -35 0 -45 127 43
-9 15 118 35 81 -9 -40 8
-67 36 -17 -65 1 -5 -24 11
81 -47 -36 -83 -2 -11 80 11
12 47 -1 3 -127 36 -60 -84
16 18 2 -65 -15 -19 -47 -61
40 19 -10 -31 51 -68 51 15
-28 -39 12 33 41 -54 76 -127
34 71 66 -52 27 18 -77 -9
105 58 31 109 -26 11 84 -21
-7 -47 52 39 -12 -1 48 54
78 -28 -71 34 53 -26 -64 -59

tfl.pseudo_qconst18 i1 [90, 60]
00000000: 3bd7 1c15 3118 b632 6033 2e06 0849 5521
00000010: 2fe7 758e f2ac d98c 5437 3fe3 7529 8621
00000020: 09ba 41b1 d159 83f1 f822 a9b4 002c 5517
00000030: 5c4a 874f b6db cd81 49a8 469c db9d e8d3
00000040: 9cbb 35bc de38 e1d0 c042 4274 76cb ecc1
00000050: 62ef e781 fd28 553c e500 aa57 5db1 5ede
00000060: 8330 e091 60f8 7600 5dbf 70b0 edf1 2786
00000070: 1f3e afff f192 a414 3226 0406 69ef 3900
00000080: 5fb6 9ef6 b7cb 37c4 4a3b 9c15 48ca 6bd2
00000090: 2d00 fa62 6f81 3256 7604 c6c2 c043 6bad
000000a0: 7805 4cd2 89f3 eeea d200 bf99 8e60 a1fe
000000b0: 8f86 89c6 ebfa 6033 bf9c 3197 49cf b8fd
000000c0: f14c 9187 6ce5 d4a1 0a03 c7eb 91ea 09c4
000000d0: 0ee7 daa2 d255 687d f9d6 1e39 4def bb20
000000e0: f3d9 eece 4a81 245f 02c6 01d2 3fd5 4d7d
000000f0: 9289 f36b ad05 d243 277f de31 79e5 08e8
59 -41 28 21 49 24 -74 50
96 51 46 6 8 73 85 33
47 -25 117 -114 -14 -84 -39 -116
84 55 63 -29 117 41 -122 33
9 -70 65 -79 -47 89 -125 -15
-8 34 -87 -76 0 44 85 23
92 74 -121 79 -74 -37 -51 -127
73 -88 70 -100 -37 -99 -24 -45
-100 -69 53 -68 -34 56 -31 -48
-64 66 66 116 118 -53 -20 -63
98 -17 -25 -127 -3 40 85 60
-27 0 -86 87 93 -79 94 -34
-125 48 -32 -111 96 -8 118 0
93 -65 112 -80 -19 -15 39 -122
31 62 -81 -1 -15 -110 -92 20
50 38 4 6 105 -17 57 0
95 -74 -98 -10 -73 -53 55 -60
74 59 -100 21 72 -54 107 -46
45 0 -6 98 111 -127 50 86
118 4 -58 -62 -64 67 107 -83
120 5 76 -46 -119 -13 -18 -22
-46 0 -65 -103 -114 96 -95 -2
-113 -122 -119 -58 -21 -6 96 51
-65 -100 49 -105 73 -49 -72 -3
-15 76 -111 -121 108 -27 -44 -95
10 3 -57 -21 -111 -22 9 -60
14 -25 -38 -94 -46 85 104 125
-7 -42 30 57 77 -17 -69 32
-13 -39 -18 -50 74 -127 36 95
2 -58 1 -46 63 -43 77 125
-110 -119 -13 107 -83 5 -46 67
39 127 -34 49 121 -27 8 -24

tfl.pseudo_qconst20 i1 [90, 30]
00000000: 2dc1 2c1d bb54 e1d5 5eba 10e7 530a 7fef
00000010: cd0c 0302 ce1d b433 0bff db9b 273a 3516
00000020: 34fa 24a7 62d2 f112 1816 d3f8 f518 d81b
00000030: 81fd d406 1ac2 2109 e33f 2fd2 85ef 8285
00000040: 6008 3f81 2215 8f44 24ad 338c a9cf 4a2e
00000050: cd52 e8fd 1b15 6bd4 4af4 7f3b ebed f815
00000060: 3046 bee8 10b9 f7fc ee0c 19d4 cdf1 2108
00000070: f3d0 07d2 e0df e0da 97c1 ed38 e113 2932
00000080: 20ee 5ee7 eb33 03d2 0afb f702 0f75 840a
00000090: 1bda f69f c681 1028 e608 22f6 2cfd 1416
000000a0: 1481 f6de 140d ddeb e10a dd00 1520 1c03
000000b0: fff5 2906 0992 e819 cb31 6309 ca27 fb0b
000000c0: 2644 3f04 81bc 2fd4 b3fb a8c0 c118 7450
000000d0: ef0a 0c90 e1f2 6303 e87f 3848 348a e4e5
000000e0: f558 e334 cdfd 2197 0799 a530 a2ed 2bf8
000000f0: 00fd cda8 3aae 3d2d f824 f0eb 020e 16e5
45 -63 44 29 -69 84 -31 -43
94 -70 16 -25 83 10 127 -17
-51 12 3 2 -50 29 -76 51
11 -1 -37 -101 39 58 53 22
52 -6 36 -89 98 -46 -15 18
24 22 -45 -8 -11 24 -40 27
-127 -3 -44 6 26 -62 33 9
-29 63 47 -46 -123 -17 -126 -123
96 8 63 -127 34 21 -113 68
36 -83 51 -116 -87 -49 74 46
-51 82 -24 -3 27 21 107 -44
74 -12 127 59 -21 -19 -8 21
48 70 -66 -24 16 -71 -9 -4
-18 12 25 -44 -51 -15 33 8
-13 -48 7 -46 -32 -33 -32 -38
-105 -63 -19 56 -31 19 41 50
32 -18 94 -25 -21 51 3 -46
10 -5 -9 2 15 117 -124 10
27 -38 -10 -97 -58 -127 16 40
-26 8 34 -10 44 -3 20 22
20 -127 -10 -34 20 13 -35 -21
-31 10 -35 0 21 32 28 3
-1 -11 41 6 9 -110 -24 25
-53 49 99 9 -54 39 -5 11
38 68 63 4 -127 -68 47 -44
-77 -5 -88 -64 -63 24 116 80
-17 10 12 -112 -31 -14 99 3
-24 127 56 72 52 -118 -28 -27
-11 88 -29 52 -51 -3 33 -105
7 -103 -91 48 -94 -19 43 -8
0 -3 -51 -88 58 -82 61 45
-8 36 -16 -21 2 14 22 -27

tfl.pseudo_qconst23 i1 [90, 60]
00000000: ef87 95a6 abe6 8759 a9ba a5e6 a034 f84a
00000010: 51ad 8126 678e e306 da26 e3eb 7ddd c569
00000020: 9978 6f86 6105 9c93 e49f 0926 0346 91e8
00000030: e85f 4578 59f2 3401 efec 7b0f 0434 8430
00000040: 7e20 86a6 089c c82b 77bb 659d c587 d87f
00000050: 7194 76e5 ed54 110b 62fb 512a d730 b578
00000060: 6766 0030 62c0 c2bc fcb2 cb4f 8ae2 6b90
00000070: c170 5809 4e9b 4d22 6b87 5ed8 811f 70b4
00000080: 9975 e95f 53a7 90f4 f585 2172 552e bd84
00000090: 3f9c fa7a dc10 67ba e38c 244c e004 5552
000000a0: a82a aea9 8ec0 dfed 2b07 c591 b071 9d81
000000b0: cb75 3685 26ab 02d7 de33 bf65 537b 0efc
000000c0: c033 6343 533a c4ff 727e 55da 448d 7886
000000d0: c3ed a26e 5418 cea7 951b 3d8c 7d3c 7805
000000e0: e530 1714 5e60 767f ae89 8e62 bec1 1af0
000000f0: 272b d275 ff05 3969 9006 3fbf 57d0 0eeb
-17 -121 -107 -90 -85 -26 -121 89
-87 -70 -91 -26 -96 52 -8 74
81 -83 -127 38 103 -114 -29 6
-38 38 -29 -21 125 -35 -59 105
-103 120 111 -122 97 5 -100 -109
-28 -97 9 38 3 70 -111 -24
-24 95 69 120 89 -14 52 1
-17 -20 123 15 4 52 -124 48
126 32 -122 -90 8 -100 -56 43
119 -69 101 -99 -59 -121 -40 127
113 -108 118 -27 -19 84 17 11
98 -5 81 42 -41 48 -75 120
103 102 0 48 98 -64 -62 -68
-4 -78 -53 79 -118 -30 107 -112
-63 112 88 9 78 -101 77 34
107 -121 94 -40 -127 31 112 -76
-103 117 -23 95 83 -89 -112 -12
-11 -123 33 114 85 46 -67 -124
63 -100 -6 122 -36 16 103 -70
-29 -116 36 76 -32 4 85 82
-88 42 -82 -87 -114 -64 -33 -19
43 7 -59 -111 -80 113 -99 -127
-53 117 54 -123 38 -85 2 -41
-34 51 -65 101 83 123 14 -4
-64 51 99 67 83 58 -60 -1
114 126 85 -38 68 -115 120 -122
-61 -19 -94 110 84 24 -50 -89
-107 27 61 -116 125 60 120 5
-27 48 23 20 94 96 118 127
-82 -119 -114 98 -66 -63 26 -16
39 43 -46 117 -1 5 57 105
-112 6 63 -65 87 -48 14 -21

tfl.pseudo_qconst25 i1 [90, 30]
00000000: 5d7b 7fca 4dfc 0503 f268 d3eb 9b02 56e5
00000010: 0d35 5161 cc15 8433 db11 14ec c2b4 c6fa
00000020: 5263 a525 11c1 3408 e57f 4901 0a17 0742
00000030: d53f b512 f26b 0a91 1b49 68e5 0211 e14e
00000040: d296 b5db 0c7f 4815 ecd2 4503 d740 d4f6
00000050: 46b7 ec18 07fc b204 fff6 3218 c23b 0211
00000060: b334 0a2c bf05 b87f 1fbd ab00 c1db 0c0c
00000070: b7f0 1f25 0b8e 59db 2afe f70b c5ec f1c0
00000080: 8119 d011 162c 1a14 dbdc c301 d211 3060
00000090: f3f8 ab00 9a30 3006 f730 333a 8a1c c7df
000000a0: 1955 07f0 ebd6 1b30 210c d6ce 230e 7f0c
000000b0: 2fba e1f9 ff11 0bcb 7f17 30aa f95d 3c18
000000c0: 291a ffe8 14ff 5fbf 08f5 c309 e6de f951
000000d0: 0de7 8176 0010 a60e fb36 e82c f7d6 e1cf
000000e0: 2f26 25fd 0db8 cfc0 282b cf01 e8ec 0507
000000f0: 3d24 aa79 ee53 06d8 540e f7a9 1be5 d9fc
93 123 127 -54 77 -4 5 3
-14 104 -45 -21 -101 2 86 -27
13 53 81 97 -52 21 -124 51
-37 17 20 -20 -62 -76 -58 -6
82 99 -91 37 17 -63 52 8
-27 127 73 1 10 23 7 66
-43 63 -75 18 -14 107 10 -111
27 73 104 -27 2 17 -31 78
-46 -106 -75 -37 12 127 72 21
-20 -46 69 3 -41 64 -44 -10
70 -73 -20 24 7 -4 -78 4
-1 -10 50 24 -62 59 2 17
-77 52 10 44 -65 5 -72 127
31 -67 -85 0 -63 -37 12 12
-73 -16 31 37 11 -114 89 -37
42 -2 -9 11 -59 -20 -15 -64
-127 25 -48 17 22 44 26 20
-37 -36 -61 1 -46 17 48 96
-13 -8 -85 0 -102 48 48 6
-9 48 51 58 -118 28 -57 -33
25 85 7 -16 -21 -42 27 48
33 12 -42 -50 35 14 127 12
47 -70 -31 -7 -1 17 11 -53
127 23 48 -86 -7 93 60 24
41 26 -1 -24 20 -1 95 -65
8 -11 -61 9 -26 -34 -7 81
13 -25 -127 118 0 16 -90 14
-5 54 -24 44 -9 -42 -31 -49
47 38 37 -3 13 -72 -49 -64
40 43 -49 1 -24 -20 5 7
61 36 -86 121 -18 83 6 -40
84 14 -9 -87 27 -27 -39 -4
