processing/models/quantized/cnn_lstm_1500pt/cnn_lstm_1500pt.tflite (tflite, 18008 bytes, 6 tensors)

sequential/dense_1/MatMul i1 [1, 15] scale=0.005730976 zero_point=0
000000 e0 e3 d2 81 4f e1 b8 2f 0b c1 c8 9b 6f 37 09
       -0.18339123 -0.1661983 -0.26362488 -0.7278339 0.4527471 -0.17766026 -0.41263026 0.26935586 0.06304073 -0.36105147 -0.32093465 -0.5788286 0.6361383 0.31520367 0.051578782

sequential/dense/MatMul i1 [15, 16] scale=0.0051869843 zero_point=0
000000 cf e4 24 2f ee b3 0e 08 41 09 10 d1 2e fc 2c b6
       -0.25416222 -0.14523557 0.18673143 0.24378826 -0.093365714 -0.3993978 0.072617784 0.041495875 0.33715397 0.046682857 0.08299175 -0.24378826 0.23860128 -0.020747937 0.22822732 -0.38383684
000010 ea e9 d6 a4 25 b5 3e 65 05 cd 33 fa 37 08 f1 d5
       -0.11411366 -0.11930064 -0.21785334 -0.47720256 0.19191842 -0.3890238 0.32159302 0.5238854 0.025934922 -0.2645362 0.2645362 -0.031121906 0.28528413 0.041495875 -0.07780477 -0.22304033
000020 18 c7 c1 a7 7f b3 f7 25 e7 b3 b7 e6 18 37 0d 32
       0.12448762 -0.2956581 -0.32678002 -0.4616416 0.658747 -0.3993978 -0.046682857 0.19191842 -0.12967461 -0.3993978 -0.37864986 -0.13486159 0.12448762 0.28528413 0.067430794 0.25934923
000030 c9 23 08 b1 38 0c 14 c6 06 ca b3 21 5c fd 0e 02
       -0.28528413 0.18154445 0.041495875 -0.40977177 0.29047114 0.06224381 0.10373969 -0.3008451 0.031121906 -0.28009716 -0.3993978 0.17117049 0.47720256 -0.015560953 0.072617784 0.010373969
000040 fe e0 c8 5b f5 e0 14 19 03 ef 30 f9 d5 42 c5 50
       -0.010373969 -0.1659835 -0.29047114 0.47201556 -0.05705683 -0.1659835 0.10373969 0.12967461 0.015560953 -0.08817873 0.24897525 -0.036308892 -0.22304033 0.34234098 -0.30603206 0.41495875
000050 b6 14 4c fc f1 ce 4a 2c 2d 5f eb 9c 48 6b ce fd
       -0.38383684 0.10373969 0.39421082 -0.020747937 -0.07780477 -0.25934923 0.38383684 0.22822732 0.23341429 0.49276352 -0.10892667 -0.51869845 0.37346286 0.55500734 -0.25934923 -0.015560953
000060 23 5c f0 4c 6e cb 28 1b 22 08 d4 1b ff 12 fc 22
       0.18154445 0.47720256 -0.08299175 0.39421082 0.57056826 -0.27491018 0.20747937 0.14004858 0.17635746 0.041495875 -0.22822732 0.14004858 -0.0051869843 0.093365714 -0.020747937 0.17635746
000070 af 95 0b 05 00 16 0e f6 d8 fd 20 09 1e 28 d2 ce
       -0.42014572 -0.55500734 0.05705683 0.025934922 0.0 0.11411366 0.072617784 -0.051869843 -0.20747937 -0.015560953 0.1659835 0.046682857 0.15560953 0.20747937 -0.23860128 -0.25934923
000080 d2 b6 eb d1 f2 26 0d 4b c3 33 26 35 a7 15 bb 2b
       -0.23860128 -0.38383684 -0.10892667 -0.24378826 -0.072617784 0.19710541 0.067430794 0.3890238 -0.31640604 0.2645362 0.19710541 0.27491018 -0.4616416 0.10892667 -0.35790193 0.22304033
000090 22 52 34 dd 1b eb fb e1 e9 3e de f0 48 1d 22 29
       0.17635746 0.42533273 0.26972318 -0.18154445 0.14004858 -0.10892667 -0.025934922 -0.16079651 -0.11930064 0.32159302 -0.17635746 -0.08299175 0.37346286 0.15042254 0.17635746 0.21266636
0000a0 db e3 1c 39 70 c0 cf 04 c6 be 22 28 ef 11 e2 17
       -0.19191842 -0.15042254 0.14523557 0.2956581 0.5809423 -0.331967 -0.25416222 0.020747937 -0.3008451 -0.34234098 0.17635746 0.20747937 -0.08817873 0.08817873 -0.15560953 0.11930064
0000b0 b4 e1 f4 14 08 b7 d1 c4 3d bb 0c f1 0c 00 06 03
       -0.39421082 -0.16079651 -0.06224381 0.10373969 0.041495875 -0.37864986 -0.24378826 -0.31121907 0.31640604 -0.35790193 0.06224381 -0.07780477 0.06224381 0.0 0.031121906 0.015560953
0000c0 a6 af ed ac 09 d6 ea ce 08 16 dc 08 d0 dc f5 7f
       -0.46682858 -0.42014572 -0.098552704 -0.43570668 0.046682857 -0.21785334 -0.11411366 -0.25934923 0.041495875 0.11411366 -0.18673143 0.041495875 -0.24897525 -0.18673143 -0.05705683 0.658747
0000d0 31 bb c4 e3 f2 0e 04 50 0e fa 4b 01 ff 20 f5 ec
       0.25416222 -0.35790193 -0.31121907 -0.15042254 -0.072617784 0.072617784 0.020747937 0.41495875 0.072617784 -0.031121906 0.3890238 0.0051869843 -0.0051869843 0.1659835 -0.05705683 -0.10373969
0000e0 c4 f1 fd 21 db ea e1 eb b2 e7 26 24 cb 32 dd c7
       -0.31121907 -0.07780477 -0.015560953 0.17117049 -0.19191842 -0.11411366 -0.16079651 -0.10892667 -0.40458477 -0.12967461 0.19710541 0.18673143 -0.27491018 0.25934923 -0.18154445 -0.2956581

sequential/conv1d/Conv1D i1 [16, 1, 4, 3]
000000 16 9e 30 32 c9 ef 15 ac 41 7f cc ca 58 9a 7f ce
       22 -98 48 50 -55 -17 21 -84 65 127 -52 -54 88 -102 127 -50
000010 a3 a0 38 a0 42 1d c6 49 bd 03 af ef 81 62 a7 05
       -93 -96 56 -96 66 29 -58 73 -67 3 -81 -17 -127 98 -89 5
000020 11 1c c3 f6 f4 8a 9f 50 56 5e e6 81 23 19 4a b4
       17 28 -61 -10 -12 -118 -97 80 86 94 -26 -127 35 25 74 -76
000030 52 9b 45 4e 1b d3 ba 0c ec d8 81 63 d9 21 fe 03
       82 -101 69 78 27 -45 -70 12 -20 -40 -127 99 -39 33 -2 3
000040 c6 05 81 51 b6 e1 39 24 ee 00 db 6c fb 58 66 c3
       -58 5 -127 81 -74 -31 57 36 -18 0 -37 108 -5 88 102 -61
000050 7f c7 31 a2 42 d9 77 bc 11 01 66 66 9d 7f 03 ff
       127 -57 49 -94 66 -39 119 -68 17 1 102 102 -99 127 3 -1
000060 1a 91 81 c5 36 0a d5 91 08 41 a0 b9 90 e8 91 df
       26 -111 -127 -59 54 10 -43 -111 8 65 -96 -71 -112 -24 -111 -33
000070 ce b3 eb 81 37 ac 03 4b 96 e7 10 a6 a8 c9 d1 ce
       -50 -77 -21 -127 55 -84 3 75 -106 -25 16 -90 -88 -55 -47 -50
000080 7f aa 0e f7 3d 01 a0 4a f1 1c 7f b4 d7 71 bd b2
       127 -86 14 -9 61 1 -96 74 -15 28 127 -76 -41 113 -67 -78
000090 68 7f 09 cc 1f ac d0 45 2f 0f 48 f7 60 22 f2 c9
       104 127 9 -52 31 -84 -48 69 47 15 72 -9 96 34 -14 -55
0000a0 b6 2f 58 81 0e 52 fb 0f 0f 6b 92 bc 41 51 0d f8
       -74 47 88 -127 14 82 -5 15 15 107 -110 -68 65 81 13 -8
0000b0 9f 07 7f af 7f 2a c2 56 e7 34 cb 4d e6 2a 15 53
       -97 7 127 -81 127 42 -62 86 -25 52 -53 77 -26 42 21 83

sequential/lstm/Read_2/ReadVariableOp1 i1 [64] scale=0.004457113 zero_point=-109
000000 83 91 9e 80 a5 94 95 98 9a 9a a1 8a 9a 9f 9e 90
       -0.071313806 -0.008914226 0.04902824 -0.08468515 0.08022803 0.004457113 0.008914226 0.022285564 0.03119979 0.03119979 0.06239958 -0.040114015 0.03119979 0.053485356 0.04902824 -0.013371339
000010 6c 72 7d 64 7b 74 7d 7f 7d 6a 7a 6b 7a 7f 7b 70
       0.9671935 0.9939362 1.0429645 0.9315366 1.0340502 1.0028504 1.0429645 1.0518787 1.0429645 0.95827925 1.0295931 0.96273637 1.0295931 1.0518787 1.0340502 0.98502195
000020 96 95 98 8a 92 98 9e 95 90 a2 96 92 96 90 8e 96
       0.013371339 0.008914226 0.022285564 -0.040114015 -0.004457113 0.022285564 0.04902824 0.008914226 -0.013371339 0.06685669 0.013371339 -0.004457113 0.013371339 -0.013371339 -0.022285564 0.013371339
000030 86 94 a6 82 ad 97 98 a5 98 a3 a4 94 a0 9d a4 90
       -0.05794247 0.004457113 0.08468515 -0.07577092 0.11588494 0.017828451 0.022285564 0.08022803 0.022285564 0.071313806 0.07577092 0.004457113 0.05794247 0.044571128 0.07577092 -0.013371339

while/MatMul i1 [64, 16] scale=0.0075638215 zero_point=0
000000 d9 d0 ee d1 01 03 cd 12 ef f3 02 0c d4 e0 f2 f0
       -0.29498905 -0.36306342 -0.13614878 -0.35549963 0.0075638215 0.022691464 -0.38575488 0.13614878 -0.12858497 -0.09832968 0.015127643 0.090765856 -0.33280814 -0.24204229 -0.1058935 -0.121021144
000010 de c4 e4 fb ed 11 dd f8 e1 fe ec df fc 00 18 ef
       -0.25716993 -0.4538293 -0.211787 -0.037819106 -0.14371261 0.12858497 -0.26473376 -0.060510572 -0.23447847 -0.015127643 -0.15127642 -0.2496061 -0.030255286 0.0 0.18153171 -0.12858497
000020 07 0f db d6 96 e5 dd e5 f0 24 22 dd d0 cd c5 10
       0.05294675 0.11345732 -0.2798614 -0.3176805 -0.8017651 -0.20422319 -0.26473376 -0.20422319 -0.121021144 0.27229756 0.25716993 -0.26473376 -0.36306342 -0.38575488 -0.44626546 0.121021144
000030 cd ba 07 df b7 02 e0 f7 f3 e6 e5 07 02 cc eb d0
       -0.38575488 -0.5294675 0.05294675 -0.2496061 -0.55215895 0.015127643 -0.24204229 -0.06807439 -0.09832968 -0.19665936 -0.20422319 0.05294675 0.015127643 -0.3933187 -0.15884025 -0.36306342
000040 17 25 24 d1 00 fe 05 05 fb 17 39 12 0b 2f f0 ff
       0.1739679 0.2798614 0.27229756 -0.35549963 0.0 -0.015127643 0.037819106 0.037819106 -0.037819106 0.1739679 0.43113783 0.13614878 0.083202034 0.35549963 -0.121021144 -0.0075638215
000050 db f3 02 09 ef 11 f4 e9 06 e1 f9 dc e4 fd cb fc
       -0.2798614 -0.09832968 0.015127643 0.06807439 -0.12858497 0.12858497 -0.090765856 -0.1739679 0.045382928 -0.23447847 -0.05294675 -0.27229756 -0.211787 -0.022691464 -0.40088254 -0.030255286
000060 1b 3d d9 0c cc e7 f4 15 1a d3 e1 e4 fa ee 11 0a
       0.20422319 0.46139312 -0.29498905 0.090765856 -0.3933187 -0.18909554 -0.090765856 0.15884025 0.19665936 -0.34037197 -0.23447847 -0.211787 -0.045382928 -0.13614878 0.12858497 0.07563821
000070 cd d7 1f f2 de 38 cf ee 26 32 0c cf 07 ec 2c fb
       -0.38575488 -0.31011668 0.23447847 -0.1058935 -0.25716993 0.423574 -0.37062725 -0.13614878 0.28742522 0.37819108 0.090765856 -0.37062725 0.05294675 -0.15127642 0.33280814 -0.037819106
000080 f2 04 02 1c 0d 05 ec 0f 28 25 ef e0 db 00 bd f4
       -0.1058935 0.030255286 0.015127643 0.211787 0.09832968 0.037819106 -0.15127642 0.11345732 0.30255285 0.2798614 -0.12858497 -0.24204229 -0.2798614 0.0 -0.50677603 -0.090765856
000090 1a e8 00 24 06 f5 b0 06 42 1e e0 44 1a f6 57 00
       0.19665936 -0.18153171 0.0 0.27229756 0.045382928 -0.083202034 -0.6051057 0.045382928 0.4992122 0.22691464 -0.24204229 0.51433986 0.19665936 -0.07563821 0.65805244 0.0
0000a0 f3 dc fe 24 3d 45 28 e9 18 fb 09 ed ec d3 08 ee
       -0.09832968 -0.27229756 -0.015127643 0.27229756 0.46139312 0.5219037 0.30255285 -0.1739679 0.18153171 -0.037819106 0.06807439 -0.14371261 -0.15127642 -0.34037197 0.060510572 -0.13614878
0000b0 1f 22 f8 25 5a fb df f1 09 15 f8 2e 14 2d 1d 13
       0.23447847 0.25716993 -0.060510572 0.2798614 0.68074393 -0.037819106 -0.2496061 -0.11345732 0.06807439 0.15884025 -0.060510572 0.3479358 0.15127642 0.34037197 0.21935083 0.14371261
0000c0 c7 c2 1b 06 16 1d 01 da e8 eb 10 11 11 0a 2f fa
       -0.43113783 -0.46895695 0.20422319 0.045382928 0.16640407 0.21935083 0.0075638215 -0.28742522 -0.18153171 -0.15884025 0.121021144 0.12858497 0.12858497 0.07563821 0.35549963 -0.045382928
0000d0 1b f0 fa f7 f2 07 ed 1d ff 09 0d 17 14 0c 1a 12
       0.20422319 -0.121021144 -0.045382928 -0.06807439 -0.1058935 0.05294675 -0.14371261 0.21935083 -0.0075638215 0.06807439 0.09832968 0.1739679 0.15127642 0.090765856 0.19665936 0.13614878
0000e0 11 3a 15 f2 ce f9 08 02 33 0a 28 0c 14 3e 17 35
       0.12858497 0.43870166 0.15884025 -0.1058935 -0.37819108 -0.05294675 0.060510572 0.015127643 0.38575488 0.07563821 0.30255285 0.090765856 0.15127642 0.46895695 0.1739679 0.40088254
0000f0 e1 00 16 cf 0a 18 0a d8 19 0c e6 0c d4 ed ef d7
       -0.23447847 0.0 0.16640407 -0.37062725 0.07563821 0.18153171 0.07563821 -0.30255285 0.18909554 0.090765856 -0.19665936 0.090765856 -0.33280814 -0.14371261 -0.12858497 -0.31011668

while/MatMul_11 i1 [64, 16] scale=0.0047360063 zero_point=0
000000 dc fb 19 02 e0 f2 e6 08 eb e9 29 ea 22 12 16 4a
       -0.17049623 -0.023680031 0.11840016 0.0094720125 -0.1515522 -0.06630409 -0.12313616 0.03788805 -0.09945613 -0.108928144 0.19417626 -0.10419214 0.16102421 0.08524811 0.10419214 0.35046446
000010 2b 01 02 dc fd 05 04 22 25 fe f0 28 10 cf c7 39
       0.20364827 0.0047360063 0.0094720125 -0.17049623 -0.014208019 0.023680031 0.018944025 0.16102421 0.17523223 -0.0094720125 -0.0757761 0.18944025 0.0757761 -0.2320643 -0.26995236 0.26995236
000020 0c 0f 0a 0b c7 37 b2 0d c2 20 e2 f1 e7 f8 ef e8
       0.056832075 0.071040094 0.047360063 0.05209607 -0.26995236 0.26048034 -0.3694085 0.06156808 -0.2936324 0.1515522 -0.14208019 -0.071040094 -0.11840016 -0.03788805 -0.08051211 -0.11366415
000030 14 e6 17 20 fb 1a fc 05 d5 23 ed 2b 1e e8 f4 29
       0.094720125 -0.12313616 0.108928144 0.1515522 -0.023680031 0.12313616 -0.018944025 0.023680031 -0.20364827 0.16576022 -0.08998412 0.20364827 0.14208019 -0.11366415 -0.056832075 0.19417626
000040 2d e0 22 0b 06 17 dd b6 c8 18 2b 28 d8 25 26 0a
       0.21312028 -0.1515522 0.16102421 0.05209607 0.028416038 0.108928144 -0.16576022 -0.35046446 -0.26521635 0.11366415 0.20364827 0.18944025 -0.18944025 0.17523223 0.17996824 0.047360063
000050 3f de 2c f4 f6 00 1d 03 dc c9 0e e7 b6 2b d4 e7
       0.2983684 -0.16102421 0.20838428 -0.056832075 -0.047360063 0.0 0.13734418 0.014208019 -0.17049623 -0.26048034 0.06630409 -0.11840016 -0.35046446 0.20364827 -0.20838428 -0.11840016
000060 2d 03 fb ea bb f2 0a e2 f5 de d8 e0 f3 f8 ec e4
       0.21312028 0.014208019 -0.023680031 -0.10419214 -0.32678443 -0.06630409 0.047360063 -0.14208019 -0.05209607 -0.16102421 -0.18944025 -0.1515522 -0.06156808 -0.03788805 -0.094720125 -0.13260818
000070 25 e0 f2 02 21 43 ee e3 f6 0f f7 01 de c8 d5 f1
       0.17523223 -0.1515522 -0.06630409 0.0094720125 0.1562882 0.31731242 -0.08524811 -0.13734418 -0.047360063 0.071040094 -0.042624056 0.0047360063 -0.16102421 -0.26521635 -0.20364827 -0.071040094
000080 3a f2 ef 09 05 4b ed 0c ed 14 39 12 f9 61 e4 cb
       0.27468836 -0.06630409 -0.08051211 0.042624056 0.023680031 0.35520047 -0.08998412 0.056832075 -0.08998412 0.094720125 0.26995236 0.08524811 -0.033152044 0.4593926 -0.13260818 -0.25100833
000090 fb b3 11 19 d6 13 e0 f4 2e fe f5 f3 04 16 fa bd
       -0.023680031 -0.36467248 0.08051211 0.11840016 -0.19891226 0.08998412 -0.1515522 -0.056832075 0.21785629 -0.0094720125 -0.05209607 -0.06156808 0.018944025 0.10419214 -0.028416038 -0.31731242
0000a0 f4 da 10 fb 05 f8 4a 36 d0 1f f9 0d 07 c8 09 00
       -0.056832075 -0.17996824 0.0757761 -0.023680031 0.023680031 -0.03788805 0.35046446 0.25574434 -0.2273283 0.1468162 -0.033152044 0.06156808 0.033152044 -0.26521635 0.042624056 0.0
0000b0 f7 ef 03 13 f5 21 0d dc f4 16 25 0a 04 09 d5 c5
       -0.042624056 -0.08051211 0.014208019 0.08998412 -0.05209607 0.1562882 0.06156808 -0.17049623 -0.056832075 0.10419214 0.17523223 0.047360063 0.018944025 0.042624056 -0.20364827 -0.27942437
0000c0 1b fd 0a fe c6 19 ee f5 e9 27 25 19 c4 ca da 1d
       0.12787217 -0.014208019 0.047360063 -0.0094720125 -0.27468836 0.11840016 -0.08524811 -0.05209607 -0.108928144 0.18470424 0.17523223 0.11840016 -0.28416038 -0.25574434 -0.17996824 0.13734418
0000d0 1d d1 db 2a 18 fb e5 cc 02 1e f1 f8 0d f9 15 fd
       0.13734418 -0.2225923 -0.17523223 0.19891226 0.11366415 -0.023680031 -0.12787217 -0.24627233 0.0094720125 0.14208019 -0.071040094 -0.03788805 0.06156808 -0.033152044 0.09945613 -0.014208019
0000e0 27 d6 f6 0b 24 fa b1 ed c7 51 b4 f4 20 1f 0f d5
       0.18470424 -0.19891226 -0.047360063 0.05209607 0.17049623 -0.028416038 -0.3741445 -0.08998412 -0.26995236 0.3836165 -0.35993648 -0.056832075 0.1515522 0.1468162 0.071040094 -0.20364827
0000f0 03 d9 ea 10 e4 ff dc f7 19 ff 03 ea f2 f3 fb df
       0.014208019 -0.18470424 -0.10419214 0.0757761 -0.13260818 -0.0047360063 -0.17049623 -0.042624056 0.11840016 -0.0047360063 0.014208019 -0.10419214 -0.06630409 -0.06156808 -0.023680031 -0.1562882
