model_training/models/quantized/cnn_2024_08_28_12_33/cnn_2024_08_28_12_33.tflite (tflite, 223216 bytes, 4 tensors)

tfl.pseudo_qconst1 i1 [1, 20] scale=0.0040996177 zero_point=0
000000 e5 c7 fe 06 47 de 21 a2 c9 19 63 4e 15 d1 ef 81
       -0.11068968 -0.2336782 -0.008199235 0.024597706 0.29107285 -0.139387 0.13528739 -0.38536406 -0.22547898 0.10249044 0.40586215 0.3197702 0.08609197 -0.19268203 -0.0696935 -0.52065146
000010 5e aa 3a 70
       0.38536406 -0.35256714 0.23777783 0.45915717

tfl.pseudo_qconst3 i1 [20, 9792]
000000 f8 2e ac ee c6 62 c9 ab 47 56 43 9b cf ec ae 05
       -8 46 -84 -18 -58 98 -55 -85 71 86 67 -101 -49 -20 -82 5
000010 f9 c7 aa 13 cb 01 e5 aa d3 50 f1 54 3a d7 f5 d4
       -7 -57 -86 19 -53 1 -27 -86 -45 80 -15 84 58 -41 -11 -44
000020 c4 b1 df d4 b2 18 fd e7 ec 5b ed cc 01 c4 cb a8
       -60 -79 -33 -44 -78 24 -3 -25 -20 91 -19 -52 1 -60 -53 -88
000030 cf 03 d3 16 3d 12 20 2c d2 a9 55 20 bb 3a 2d 41
       -49 3 -45 22 61 18 32 44 -46 -87 85 32 -69 58 45 65
000040 3c 5f 1a 1c da cb b2 d6 bf d0 f8 12 1a 2f 17 a7
       60 95 26 28 -38 -53 -78 -42 -65 -48 -8 18 26 47 23 -89
000050 0c fd 45 46 b8 3a b0 b5 4e b8 c3 4c 45 dd e1 58
       12 -3 69 70 -72 58 -80 -75 78 -72 -61 76 69 -35 -31 88
000060 f9 c9 ea 46 ef 3b 9d c1 f4 c4 aa cc dd cb 59 c6
       -7 -55 -22 70 -17 59 -99 -63 -12 -60 -86 -52 -35 -53 89 -58
000070 f9 f0 1f 25 ce 05 d0 c4 45 03 08 f5 23 52 1b b9
       -7 -16 31 37 -50 5 -48 -60 69 3 8 -11 35 82 27 -71
000080 5c f8 22 ae e4 ca 51 43 b4 4f e8 d1 2f 10 b9 33
       92 -8 34 -82 -28 -54 81 67 -76 79 -24 -47 47 16 -71 51
000090 51 a2 e0 e3 3c 26 df ed ca c1 d6 c6 fa 10 d5 cd
       81 -94 -32 -29 60 38 -33 -19 -54 -63 -42 -58 -6 16 -43 -51
0000a0 b4 27 c7 06 12 b4 fa be d2 ef bb bb 56 04 1e ea
       -76 39 -57 6 18 -76 -6 -66 -46 -17 -69 -69 86 4 30 -22
0000b0 f8 30 ed b7 31 c6 32 ee f5 10 30 b8 2a c8 09 a9
       -8 48 -19 -73 49 -58 50 -18 -11 16 48 -72 42 -56 9 -87
0000c0 41 fc c1 45 4d e3 37 df 2c ec df fa 1b 03 30 47
       65 -4 -63 69 77 -29 55 -33 44 -20 -33 -6 27 3 48 71
0000d0 c3 ac e6 fe a6 e1 e1 d7 eb df ac b0 e2 c1 22 da
       -61 -84 -26 -2 -90 -31 -31 -41 -21 -33 -84 -80 -30 -63 34 -38
0000e0 d2 21 ff de 32 21 49 3d ab 4f df c7 5b f1 03 cb
       -46 33 -1 -34 50 33 73 61 -85 79 -33 -57 91 -15 3 -53
0000f0 d8 10 4b 42 d0 1b 38 00 f5 9e e4 08 4c ba b7 2a
       -40 16 75 66 -48 27 56 0 -11 -98 -28 8 76 -70 -73 42

tfl.pseudo_qconst5 i1 [64, 3, 3, 32]
000000 0c da c4 32 44 d6 b9 a1 04 0f f6 9a 36 69 ac 0d
       12 -38 -60 50 68 -42 -71 -95 4 15 -10 -102 54 105 -84 13
000010 ad 4e 46 0f f8 66 e0 0d 26 e2 9f 52 f2 69 4e a9
       -83 78 70 15 -8 102 -32 13 38 -30 -97 82 -14 105 78 -87
000020 32 0f 47 19 16 dc 6a 3e 4f e0 c8 ab 21 fd 60 73
       50 15 71 25 22 -36 106 62 79 -32 -56 -85 33 -3 96 115
000030 0b 0b d8 5a 75 0f 2c 4f a4 41 f9 9d a4 14 d9 b3
       11 11 -40 90 117 15 44 79 -92 65 -7 -99 -92 20 -39 -77
000040 20 28 d0 b7 98 92 0b f1 e4 33 b2 c4 17 1f 6c ac
       32 40 -48 -73 -104 -110 11 -15 -28 51 -78 -60 23 31 108 -84
000050 b7 1e 6a 51 b4 61 c1 c0 85 f2 1a 2e 53 3c e2 9a
       -73 30 106 81 -76 97 -63 -64 -123 -14 26 46 83 60 -30 -102
000060 3e 27 bf f5 49 b7 e2 30 7e dd 54 f6 13 b7 c8 ff
       62 39 -65 -11 73 -73 -30 48 126 -35 84 -10 19 -73 -56 -1
000070 ff f8 7c 25 d3 08 25 45 07 e6 4a a1 67 d8 26 6f
       -1 -8 124 37 -45 8 37 69 7 -26 74 -95 103 -40 38 111
000080 f0 3f d3 1e fd 18 b4 37 2c 14 d6 35 5d 66 e7 be
       -16 63 -45 30 -3 24 -76 55 44 20 -42 53 93 102 -25 -66
000090 4b ca 66 5c 1a fd 14 a4 a0 41 d5 05 ac 3e 69 9c
       75 -54 102 92 26 -3 20 -92 -96 65 -43 5 -84 62 105 -100
0000a0 a5 2e fd 19 3e 18 5a a3 eb d1 b5 e1 b8 08 97 c2
       -91 46 -3 25 62 24 90 -93 -21 -47 -75 -31 -72 8 -105 -62
0000b0 3c 52 c6 1a 21 d3 5a 0c e1 a8 03 40 e4 59 49 6b
       60 82 -58 26 33 -45 90 12 -31 -88 3 64 -28 89 73 107
0000c0 45 fb 2f 60 31 61 10 d6 0d 61 1c 60 b9 49 50 bb
       69 -5 47 96 49 97 16 -42 13 97 28 96 -71 73 80 -69
0000d0 91 12 6a 52 9c 9a 02 f8 17 4e da d6 1f bc 91 11
       -111 18 106 82 -100 -102 2 -8 23 78 -38 -42 31 -68 -111 17
0000e0 34 da 54 d9 a0 ae c9 c0 23 3f 5d a0 d5 53 f0 26
       52 -38 84 -39 -96 -82 -55 -64 35 63 93 -96 -43 83 -16 38
0000f0 69 19 5e 1b 4e e8 1b e0 81 e1 5e 9a fa 71 c7 1c
       105 25 94 27 78 -24 27 -32 -127 -31 94 -102 -6 113 -57 28

tfl.pseudo_qconst7 i1 [32, 3, 3, 1]
000000 1e 13 4f 47 e7 8b 12 81 50 1b 19 93 c2 7f 97 9f
       30 19 79 71 -25 -117 18 -127 80 27 25 -109 -62 127 -105 -97
000010 f5 59 ea 81 74 b6 a3 f1 ee 34 2b 2f 20 be d3 81
       -11 89 -22 -127 116 -74 -93 -15 -18 52 43 47 32 -66 -45 -127
000020 71 dc 4d b5 27 c7 36 70 4d 38 12 81 1d 43 81 64
       113 -36 77 -75 39 -57 54 112 77 56 18 -127 29 67 -127 100
000030 e4 1c c0 cb ab 30 7f 45 45 49 6c f6 5d 24 6e 91
       -28 28 -64 -53 -85 48 127 69 69 73 108 -10 93 36 110 -111
000040 d1 5c 53 dd 81 90 44 71 bc 7f e0 95 cc d2 0e 57
       -47 92 83 -35 -127 -112 68 113 -68 127 -32 -107 -52 -46 14 87
000050 30 7a 89 d9 dd e9 8f 81 93 f8 1e eb c3 2d 7f 28
       48 122 -119 -39 -35 -23 -113 -127 -109 -8 30 -21 -61 45 127 40
000060 af 42 69 1f 91 8a 7f dd c4 05 66 8c 16 cc 73 81
       -81 66 105 31 -111 -118 127 -35 -60 5 102 -116 22 -52 115 -127
000070 a9 a4 08 c3 72 62 d4 91 aa 3e 0f 30 81 a6 6d 9c
       -87 -92 8 -61 114 98 -44 -111 -86 62 15 48 -127 -90 109 -100
000080 de 43 18 d9 44 70 81 48 e9 28 24 4d 7b 81 fa a0
       -34 67 24 -39 68 112 -127 72 -23 40 36 77 123 -127 -6 -96
000090 74 a3 81 f5 e8 b9 33 34 e6 58 28 0b a4 83 f1 9f
       116 -93 -127 -11 -24 -71 51 52 -26 88 40 11 -92 -125 -15 -97
0000a0 b2 7f 1a c1 a2 2b 59 81 fa 5f 27 3c d4 9c 81 14
       -78 127 26 -63 -94 43 89 -127 -6 95 39 60 -44 -100 -127 20
0000b0 f1 01 ae dd fb 2d 0f a7 65 7f ab a9 30 5a e1 db
       -15 1 -82 -35 -5 45 15 -89 101 127 -85 -87 48 90 -31 -37
0000c0 70 67 84 81 6b 74 4c 36 9f cf 81 4b b1 5f 0c 36
       112 103 -124 -127 107 116 76 54 -97 -49 -127 75 -79 95 12 54
0000d0 0d 68 52 6c 1f 81 b9 3b 37 95 75 fe e9 22 c2 81
       13 104 82 108 31 -127 -71 59 55 -107 117 -2 -23 34 -62 -127
0000e0 67 fe 7f 65 5f a2 97 f6 f4 98 dc a3 2e 81 dd 7e
       103 -2 127 101 95 -94 -105 -10 -12 -104 -36 -93 46 -127 -35 126
0000f0 c0 d2 c0 d6 bd e4 c3 48 cf 2c 81 5f 1f d3 76 f4
       -64 -46 -64 -42 -67 -28 -61 72 -49 44 -127 95 31 -45 118 -12
