processing/models/quantized/cnn_1500pt/cnn_1500pt.tflite (tflite, 14512 bytes, 5 tensors)

sequential/dense_1/MatMul i1 [1, 15] scale=0.011730584 zero_point=0
00000000: abc5 813c 3e2e b340 313c d2c3 bfcd c0
-0.99709964 -0.69210446 -1.4897842 0.70383507 0.72729623 0.53960687 -0.903255 0.7507574
0.57479864 0.70383507 -0.53960687 -0.7155656 -0.762488 -0.5982598 -0.7507574

sequential/dense/MatMul i1 [15, 200] scale=0.011639252 zero_point=0
00000000: 03b9 ffaf ff83 ce0d 0dc2 fecf fbb1 d009
00000010: fecf fec9 fda9 d708 0cd3 fee0 fbbf e00d
00000020: 01da ffc1 f7b9 dbf5 0bda fec9 f6c2 dbf4
00000030: 04e4 fedf fbca da07 02e1 ffd8 f9cc ddf9
00000040: fcdd fed5 f7c8 da0b 07ea fedc 00cb e10a
00000050: 04f0 fedb f6d1 f0fc 01ee ffcd fbd4 f5fd
00000060: 05f4 fde3 ffca f704 fdf7 ffe6 00db fefc
00000070: fff7 fee5 ffdf ff03 f8f6 fee9 f7dd fffb
00000080: 0cf7 fbec fbe7 ff0d 00fa fbef f9ea 0006
00000090: fcfb fbf4 04ed ff01 f7fd fbf5 fdf0 fefa
000000a0: 0bfc fbf9 fbf1 fef3 fdfe f8fa faf4 fff5
000000b0: ff00 f9fe f8f4 ff09 0300 f903 f9f7 fff1
000000c0: f700 f8fd fdf8 ff05 01d7 00c7 09c3 e3fa
000000d0: fbe5 ffd6 00c6 ebfa 0dd1 fed3 09bd e0f7
000000e0: 0ccb 00d7 0fcb e3ff 03d8 ffbd feca e80e
000000f0: 01d6 00c6 08e4 ea08 09d1 ffc3 03d7 e7fd
0.034917757 -0.8263869 -0.011639252 -0.9427794 -0.011639252 -1.4549066 -0.5819626 0.15131028
0.15131028 -0.7216337 -0.023278505 -0.57032335 -0.05819626 -0.91950095 -0.5586841 0.10475327
-0.023278505 -0.57032335 -0.023278505 -0.6401589 -0.034917757 -1.012615 -0.47720933 0.09311402
0.13967103 -0.52376634 -0.023278505 -0.37245607 -0.05819626 -0.7565514 -0.37245607 0.15131028
0.011639252 -0.4422916 -0.011639252 -0.7332729 -0.10475327 -0.8263869 -0.43065232 -0.12803178
0.12803178 -0.4422916 -0.023278505 -0.6401589 -0.11639252 -0.7216337 -0.43065232 -0.13967103
0.04655701 -0.32589906 -0.023278505 -0.3840953 -0.05819626 -0.62851965 -0.4422916 0.081474766
0.023278505 -0.36081684 -0.011639252 -0.4655701 -0.081474766 -0.6052411 -0.40737385 -0.081474766
-0.04655701 -0.40737385 -0.023278505 -0.50048786 -0.10475327 -0.6517981 -0.4422916 0.12803178
0.081474766 -0.25606355 -0.023278505 -0.41901308 0.0 -0.61688036 -0.36081684 0.11639252
0.04655701 -0.18622804 -0.023278505 -0.43065232 -0.11639252 -0.5470449 -0.18622804 -0.04655701
0.011639252 -0.20950654 -0.011639252 -0.5936019 -0.05819626 -0.5121271 -0.12803178 -0.034917757
0.05819626 -0.13967103 -0.034917757 -0.3375383 -0.011639252 -0.62851965 -0.10475327 0.04655701
-0.034917757 -0.10475327 -0.011639252 -0.30262056 0.0 -0.43065232 -0.023278505 -0.04655701
-0.011639252 -0.10475327 -0.023278505 -0.31425983 -0.011639252 -0.3840953 -0.011639252 0.034917757
-0.09311402 -0.11639252 -0.023278505 -0.26770282 -0.10475327 -0.40737385 -0.011639252 -0.05819626
0.13967103 -0.10475327 -0.05819626 -0.23278505 -0.05819626 -0.2909813 -0.011639252 0.15131028
0.0 -0.069835514 -0.05819626 -0.19786729 -0.081474766 -0.25606355 0.0 0.069835514
-0.04655701 -0.05819626 -0.05819626 -0.13967103 0.04655701 -0.2211458 -0.011639252 0.011639252
-0.10475327 -0.034917757 -0.05819626 -0.12803178 -0.034917757 -0.18622804 -0.023278505 -0.069835514
0.12803178 -0.04655701 -0.05819626 -0.081474766 -0.05819626 -0.17458878 -0.023278505 -0.15131028
-0.034917757 -0.023278505 -0.09311402 -0.069835514 -0.069835514 -0.13967103 -0.011639252 -0.12803178
-0.011639252 0.0 -0.081474766 -0.023278505 -0.09311402 -0.13967103 -0.011639252 0.10475327
0.034917757 0.0 -0.081474766 0.034917757 -0.081474766 -0.10475327 -0.011639252 -0.17458878
-0.10475327 0.0 -0.09311402 -0.034917757 -0.034917757 -0.09311402 -0.011639252 0.05819626
0.011639252 -0.47720933 0.0 -0.66343737 0.10475327 -0.7099944 -0.3375383 -0.069835514
-0.05819626 -0.31425983 -0.011639252 -0.4888486 0.0 -0.6750766 -0.2444243 -0.069835514
0.15131028 -0.5470449 -0.023278505 -0.52376634 0.10475327 -0.7798299 -0.37245607 -0.10475327
0.13967103 -0.61688036 0.0 -0.47720933 0.17458878 -0.61688036 -0.3375383 -0.011639252
0.034917757 -0.4655701 -0.011639252 -0.7798299 -0.023278505 -0.62851965 -0.27934206 0.16294953
0.011639252 -0.4888486 0.0 -0.6750766 0.09311402 -0.32589906 -0.25606355 0.09311402
0.10475327 -0.5470449 -0.011639252 -0.7099944 0.034917757 -0.47720933 -0.2909813 -0.034917757

sequential/conv1d_2/Conv1D i1 [8, 1, 3, 16]
00000000: 380d 0c5a d843 5e87 4b1b ea24 c0e6 0132
00000010: c765 612d e805 218c bd81 f090 a88a 869d
00000020: 12a7 548a bd01 8850 e9d1 46e1 08e9 2407
00000030: 26cd db11 d832 dc56 e126 fb26 0b15 1cbc
00000040: f3de f81a f204 e17f bcf6 dc30 e131 17e1
00000050: cd01 f81e e81f fb4d e200 0fda 1c0e 2ae7
00000060: e505 f311 37c3 c4d6 e6d6 dff1 d50f ff16
00000070: 1819 eaf1 2781 24df b810 1f04 04de 104b
00000080: 3cc9 3817 ff0c 1595 b5dd 37e8 03f3 ce03
00000090: 52c6 ea0d cb19 c655 b5d5 f153 0031 fcba
000000a0: bd1b ad18 d1dc d256 ac2a 0b22 fe58 1cdc
000000b0: 3a0c f679 a810 b57f be36 a222 04fb c4d6
000000c0: f228 fcd2 d108 1381 040d 2fd3 28ce 0bd6
000000d0: d900 f2b1 f509 f6c6 e706 22fd 012a 1008
000000e0: 0639 b697 e223 05cc d02a c5f4 11f7 16d9
000000f0: e20c 8dfe cbec aa71 ef66 c239 18fb f4f9
56 13 12 90 -40 67 94 -121
75 27 -22 36 -64 -26 1 50
-57 101 97 45 -24 5 33 -116
-67 -127 -16 -112 -88 -118 -122 -99
18 -89 84 -118 -67 1 -120 80
-23 -47 70 -31 8 -23 36 7
38 -51 -37 17 -40 50 -36 86
-31 38 -5 38 11 21 28 -68
-13 -34 -8 26 -14 4 -31 127
-68 -10 -36 48 -31 49 23 -31
-51 1 -8 30 -24 31 -5 77
-30 0 15 -38 28 14 42 -25
-27 5 -13 17 55 -61 -60 -42
-26 -42 -33 -15 -43 15 -1 22
24 25 -22 -15 39 -127 36 -33
-72 16 31 4 4 -34 16 75
60 -55 56 23 -1 12 21 -107
-75 -35 55 -24 3 -13 -50 3
82 -58 -22 13 -53 25 -58 85
-75 -43 -15 83 0 49 -4 -70
-67 27 -83 24 -47 -36 -46 86
-84 42 11 34 -2 88 28 -36
58 12 -10 121 -88 16 -75 127
-66 54 -94 34 4 -5 -60 -42
-14 40 -4 -46 -47 8 19 -127
4 13 47 -45 40 -50 11 -42
-39 0 -14 -79 -11 9 -10 -58
-25 6 34 -3 1 42 16 8
6 57 -74 -105 -30 35 5 -52
-48 42 -59 -12 17 -9 22 -39
-30 12 -115 -2 -53 -20 -86 113
-17 102 -62 57 24 -5 -12 -7

sequential/conv1d_1/Conv1D i1 [16, 1, 3, 32]
00000000: efcd f245 e41a e7eb d642 f74f d608 5b1a
00000010: 1937 cbc9 39e2 c008 edc2 0cd7 b80b d80a
00000020: 2727 1fed cb46 062f b504 2ed7 601a 07fc
00000030: f1d6 292e 2d12 05f6 fccb 0ea9 d7c4 4f7f
00000040: 14d3 c7e7 b163 cf48 eef7 1068 2ac0 194b
00000050: e9d8 f73b f7f6 4908 1adb 5716 03af c353
00000060: 4afe 29ce 20df 2a57 0132 3ef1 1307 b6e7
00000070: 0505 072e 17f6 72b2 df14 d47a 7fc6 4bb8
00000080: 2876 38fd 310c 0fbd 3931 0df0 1609 b42f
00000090: b6e4 aef7 b8e7 13eb 5edc 663e 43c5 77fd
000000a0: 42cc d6e1 1736 0114 58a5 f0fa 3940 d5d2
000000b0: 58b6 4e44 f9d3 c476 d80a 2ee9 5437 32b6
000000c0: 0dcb fd4d 52c4 fbc0 81d3 f0ce face ed39
000000d0: 1d18 d2fd cd37 0dd0 eb34 0e4a 4cca ff2c
000000e0: 1d29 d8d4 1dfd cf1b bc1d e1d8 0024 2d0f
000000f0: dce2 c315 e639 1223 022e d4dc f6de e50c
-17 -51 -14 69 -28 26 -25 -21
-42 66 -9 79 -42 8 91 26
25 55 -53 -55 57 -30 -64 8
-19 -62 12 -41 -72 11 -40 10
39 39 31 -19 -53 70 6 47
-75 4 46 -41 96 26 7 -4
-15 -42 41 46 45 18 5 -10
-4 -53 14 -87 -41 -60 79 127
20 -45 -57 -25 -79 99 -49 72
-18 -9 16 104 42 -64 25 75
-23 -40 -9 59 -9 -10 73 8
26 -37 87 22 3 -81 -61 83
74 -2 41 -50 32 -33 42 87
1 50 62 -15 19 7 -74 -25
5 5 7 46 23 -10 114 -78
-33 20 -44 122 127 -58 75 -72
40 118 56 -3 49 12 15 -67
57 49 13 -16 22 9 -76 47
-74 -28 -82 -9 -72 -25 19 -21
94 -36 102 62 67 -59 119 -3
66 -52 -42 -31 23 54 1 20
88 -91 -16 -6 57 64 -43 -46
88 -74 78 68 -7 -45 -60 118
-40 10 46 -23 84 55 50 -74
13 -53 -3 77 82 -60 -5 -64
-127 -45 -16 -50 -6 -50 -19 57
29 24 -46 -3 -51 55 13 -48
-21 52 14 74 76 -54 -1 44
29 41 -40 -44 29 -3 -49 27
-68 29 -31 -40 0 36 45 15
-36 -30 -61 21 -26 57 18 35
2 46 -44 -36 -10 -34 -27 12

sequential/conv1d/Conv1D i1 [32, 1, 4, 3]
00000000: 23ed 65fc 81b7 1e8f 35a6 37ce 27cb 27c2
00000010: 7f37 f161 11b1 403d d0b6 aecc bcb6 1f81
00000020: b608 1e66 0ac4 447f d5a6 278f bc13 2bed
00000030: 3501 6918 cb53 2e81 162e eae0 1b36 494a
00000040: 7eef b57d ba81 5e8a 5038 914b 11ec 1d81
00000050: f39e 882e 3820 cfa5 71d0 0054 5f41 7fc8
00000060: 2a6b 4981 f9cd 0511 d4ed 70be 0dd6 db60
00000070: 3e04 1638 ab20 d681 dbc4 e8bd 36ed a416
00000080: d19e 7f3b 0d14 0ff9 42a2 0e53 8133 3824
00000090: 1c7f 3fd6 7dab be5f fb75 1eee 4ca3 897f
000000a0: 0fed 0afb 3b6a bb60 d803 cd28 43bb 0b66
000000b0: c80e de81 c020 78c7 7f37 a6a3 1525 1c39
000000c0: ba81 e4a4 bd95 10fe 6d33 5bfa e9ac ecbc
000000d0: 8561 eeca 8aed 3881 057f a4f9 27fd a1fb
000000e0: fde1 eb48 e381 4d7e aa97 7706 b827 12ed
000000f0: f479 2411 23a8 1640 a2d6 6281 a8e5 ffb4
35 -19 101 -4 -127 -73 30 -113
53 -90 55 -50 39 -53 39 -62
127 55 -15 97 17 -79 64 61
-48 -74 -82 -52 -68 -74 31 -127
-74 8 30 102 10 -60 68 127
-43 -90 39 -113 -68 19 43 -19
53 1 105 24 -53 83 46 -127
22 46 -22 -32 27 54 73 74
126 -17 -75 125 -70 -127 94 -118
80 56 -111 75 17 -20 29 -127
-13 -98 -120 46 56 32 -49 -91
113 -48 0 84 95 65 127 -56
42 107 73 -127 -7 -51 5 17
-44 -19 112 -66 13 -42 -37 96
62 4 22 56 -85 32 -42 -127
-37 -60 -24 -67 54 -19 -92 22
-47 -98 127 59 13 20 15 -7
66 -94 14 83 -127 51 56 36
28 127 63 -42 125 -85 -66 95
-5 117 30 -18 76 -93 -119 127
15 -19 10 -5 59 106 -69 96
-40 3 -51 40 67 -69 11 102
-56 14 -34 -127 -64 32 120 -57
127 55 -90 -93 21 37 28 57
-70 -127 -28 -92 -67 -107 16 -2
109 51 91 -6 -23 -84 -20 -68
-123 97 -18 -54 -118 -19 56 -127
5 127 -92 -7 39 -3 -95 -5
-3 -31 -21 72 -29 -127 77 126
-86 -105 119 6 -72 39 18 -19
-12 121 36 17 35 -88 22 64
-94 -42 98 -127 -88 -27 -1 -76
