model_training/models/quantized/cnn_2024_08_20_18_39/cnn_2024_08_20_18_39.tflite (tflite, 223216 bytes, 4 tensors)

tfl.pseudo_qconst1 i1 [1, 20] scale=0.0041333307 zero_point=0
00000000: 50a8 bac4 53e5 d03a 635c 8149 c393 0e42
00000010: 11db a395
0.33066645 -0.3637331 -0.28933313 -0.24799985 0.34306645 -0.11159993 -0.19839987 0.23973317
0.40919974 0.38026643 -0.524933 0.30173314 -0.25213316 -0.45053303 0.05786663 0.27279982
0.07026662 -0.15293324 -0.38439974 -0.44226637

tfl.pseudo_qconst3 i1 [20, 9792]
00000000: 5006 b6c8 acd4 3de5 492f 322d f722 c9fe
00000010: eef6 44c7 e23d 1ff3 fffd c222 d3be deee
00000020: 23ec bb0e 3819 3ff7 d8c6 2ad9 4445 240a
00000030: 2748 d306 2df3 dd43 b5fa c6b1 d9fd c115
00000040: dd2a 3e21 f93a b945 3ed8 07e1 fa19 3eda
00000050: 3afd 07be cd31 e92e 2f22 d600 c931 0ecc
00000060: f81f bacd 5228 f9e5 0d0f 1be3 f6f0 d107
00000070: b6d0 d2c9 31e8 3fbc 1feb 42cc faea debd
00000080: 2cd6 4947 f610 abb4 37be 0cc9 c8f7 f8f2
00000090: 48ce e5c4 26c9 3617 4c15 d4ee c019 df3d
000000a0: f2d8 edd7 1f1d 19c7 c512 0fd3 f53a 1833
000000b0: d4ce bf1d ce2d 0f2f fa36 00f9 4726 c3ca
000000c0: eefe e232 16f1 0ff2 c8fe 3ccb b646 1f37
000000d0: 4146 190d 140e 06da 3fd7 00e2 1708 04ea
000000e0: 202a f2e1 41da 3713 cee7 0ef7 2723 02ec
000000f0: 2d45 ea3a be17 cd05 1e2f fb2a ddce e0f3
80 6 -74 -56 -84 -44 61 -27
73 47 50 45 -9 34 -55 -2
-18 -10 68 -57 -30 61 31 -13
-1 -3 -62 34 -45 -66 -34 -18
35 -20 -69 14 56 25 63 -9
-40 -58 42 -39 68 69 36 10
39 72 -45 6 45 -13 -35 67
-75 -6 -58 -79 -39 -3 -63 21
-35 42 62 33 -7 58 -71 69
62 -40 7 -31 -6 25 62 -38
58 -3 7 -66 -51 49 -23 46
47 34 -42 0 -55 49 14 -52
-8 31 -70 -51 82 40 -7 -27
13 15 27 -29 -10 -16 -47 7
-74 -48 -46 -55 49 -24 63 -68
31 -21 66 -52 -6 -22 -34 -67
44 -42 73 71 -10 16 -85 -76
55 -66 12 -55 -56 -9 -8 -14
72 -50 -27 -60 38 -55 54 23
76 21 -44 -18 -64 25 -33 61
-14 -40 -19 -41 31 29 25 -57
-59 18 15 -45 -11 58 24 51
-44 -50 -65 29 -50 45 15 47
-6 54 0 -7 71 38 -61 -54
-18 -2 -30 50 22 -15 15 -14
-56 -2 60 -53 -74 70 31 55
65 70 25 13 20 14 6 -38
63 -41 0 -30 23 8 4 -22
32 42 -14 -31 65 -38 55 19
-50 -25 14 -9 39 35 2 -20
45 69 -22 58 -66 23 -51 5
30 47 -5 42 -35 -50 -32 -13

tfl.pseudo_qconst5 i1 [64, 3, 3, 32]
00000000: a420 0f28 5cf9 3b2d 9704 0afe 0f3d 9134
00000010: 09ea ae33 3d31 fbce b293 c1d1 a762 19f9
00000020: b6f2 f1c4 50c5 f758 ae52 1865 7fbc b813
00000030: e65f 092d 93b8 42fd bdbb 4efb 0a50 0bc4
00000040: c75e 1e98 330a 4f34 9048 abe1 33e1 9cef
00000050: 5558 dd11 40a0 559a e2b0 d2cd 599d e5e6
00000060: 416c be4d 062d 2a68 9bab 4d36 f73c 3daf
00000070: 68ed 1765 f95e 6346 3c5d 2c54 c65c dbe5
00000080: b662 3dd0 a9e5 d82b 1ce1 d99e ecbd 642b
00000090: be69 d89c 1c3f a344 d206 9d60 b00c 005e
000000a0: 4e19 12a6 6ad7 3fd7 f558 c386 9142 7634
000000b0: 9a85 ee0d fa36 cde9 6210 14ed 43d9 b0ed
000000c0: 2844 bac0 11ab ecc0 603f 5eea 4720 131a
000000d0: 8c0f 28cc d224 0c72 a76e 6263 28b6 1139
000000e0: d6f0 d7c2 3d04 d5f0 1493 572a 5861 252f
000000f0: 56b4 73b5 363f 08aa b4f0 fb09 b901 281b
-92 32 15 40 92 -7 59 45
-105 4 10 -2 15 61 -111 52
9 -22 -82 51 61 49 -5 -50
-78 -109 -63 -47 -89 98 25 -7
-74 -14 -15 -60 80 -59 -9 88
-82 82 24 101 127 -68 -72 19
-26 95 9 45 -109 -72 66 -3
-67 -69 78 -5 10 80 11 -60
-57 94 30 -104 51 10 79 52
-112 72 -85 -31 51 -31 -100 -17
85 88 -35 17 64 -96 85 -102
-30 -80 -46 -51 89 -99 -27 -26
65 108 -66 77 6 45 42 104
-101 -85 77 54 -9 60 61 -81
104 -19 23 101 -7 94 99 70
60 93 44 84 -58 92 -37 -27
-74 98 61 -48 -87 -27 -40 43
28 -31 -39 -98 -20 -67 100 43
-66 105 -40 -100 28 63 -93 68
-46 6 -99 96 -80 12 0 94
78 25 18 -90 106 -41 63 -41
-11 88 -61 -122 -111 66 118 52
-102 -123 -18 13 -6 54 -51 -23
98 16 20 -19 67 -39 -80 -19
40 68 -70 -64 17 -85 -20 -64
96 63 94 -22 71 32 19 26
-116 15 40 -52 -46 36 12 114
-89 110 98 99 40 -74 17 57
-42 -16 -41 -62 61 4 -43 -16
20 -109 87 42 88 97 37 47
86 -76 115 -75 54 63 8 -86
-76 -16 -5 9 -71 1 40 27

tfl.pseudo_qconst7 i1 [32, 3, 3, 1]
00000000: 026d d0aa 81bc 40b6 066e 19c8 8c7f 076b
00000010: ad8b fd37 148f 8118 6ae3 44d6 b851 657f
00000020: f1b2 f830 7f93 d807 8425 afd7 e358 5cfc
00000030: 2fd5 de81 1333 c589 3d52 527f cff4 15a7
00000040: 817a 6e3d f370 e8af c002 050a 81d3 726d
00000050: 51f2 dc2c 7f78 ab9c a766 c12c ae26 7f69
00000060: 353e 1cb4 9c31 c753 691e 937f 45f9 2843
00000070: 833b 2d81 ed68 a02b 03f3 2781 d012 5508
00000080: 73ea 4081 02e4 fdf0 fd7f 1448 ef36 19da
00000090: 7f79 6363 8de3 9029 452f ede2 b748 126e
000000a0: 987f b6b0 ee58 0cd4 7f1b 8e3d 2a3a ea7f
000000b0: 5a92 3a72 fef0 024d d9c0 cf7f db43 9b73
000000c0: f752 327f 7629 5fc5 edea 78d9 221d 81ee
000000d0: ee95 ffda 9bca 812a 2ae3 52c2 ea3f 811a
000000e0: 65b3 0d5a 4d81 dd61 95a8 c028 c881 0ebf
000000f0: 248d 2b89 2f10 8439 815f f52d e57f fd57
2 109 -48 -86 -127 -68 64 -74
6 110 25 -56 -116 127 7 107
-83 -117 -3 55 20 -113 -127 24
106 -29 68 -42 -72 81 101 127
-15 -78 -8 48 127 -109 -40 7
-124 37 -81 -41 -29 88 92 -4
47 -43 -34 -127 19 51 -59 -119
61 82 82 127 -49 -12 21 -89
-127 122 110 61 -13 112 -24 -81
-64 2 5 10 -127 -45 114 109
81 -14 -36 44 127 120 -85 -100
-89 102 -63 44 -82 38 127 105
53 62 28 -76 -100 49 -57 83
105 30 -109 127 69 -7 40 67
-125 59 45 -127 -19 104 -96 43
3 -13 39 -127 -48 18 85 8
115 -22 64 -127 2 -28 -3 -16
-3 127 20 72 -17 54 25 -38
127 121 99 99 -115 -29 -112 41
69 47 -19 -30 -73 72 18 110
-104 127 -74 -80 -18 88 12 -44
127 27 -114 61 42 58 -22 127
90 -110 58 114 -2 -16 2 77
-39 -64 -49 127 -37 67 -101 115
-9 82 50 127 118 41 95 -59
-19 -22 120 -39 34 29 -127 -18
-18 -107 -1 -38 -101 -54 -127 42
42 -29 82 -62 -22 63 -127 26
101 -77 13 90 77 -127 -35 97
-107 -88 -64 40 -56 -127 14 -65
36 -115 43 -119 47 16 -124 57
-127 95 -11 45 -27 127 -3 87
