processing/models/quantized/cnn_1000pt/cnn_1000pt.tflite (tflite, 13432 bytes, 5 tensors)

sequential/dense_1/MatMul i1 [1, 15] scale=0.009441344 zero_point=0
-1.1707267 0.604246 0.6231287 0.44374317 0.604246 0.44374317 0.5948047 0.3210057
0.5570393 -1.1990507 -1.0574305 0.2360336 0.50983256 0.4059778 0.21715091
00000000: 8440 422f 402f 3f22 3b81 9019 362b 17

sequential/dense/MatMul i1 [15, 128] scale=0.011873232 zero_point=0
-0.97360504 -0.5224222 -0.023746464 -0.011873232 0.16622525 -0.79550654 -1.0448444 -1.2585626
-0.48680252 -0.67677426 -0.011873232 -0.023746464 -0.0712394 -0.49867576 -0.9261121 -0.8073798
-0.55804193 -0.7005207 -0.011873232 -0.023746464 -0.0356197 -0.2612111 -0.60553485 -0.75988686
-0.53429544 -0.8073798 -0.011873232 -0.0356197 -0.08311263 -0.37994343 -0.86674595 -0.7361404
-0.6292813 -0.9973515 -0.023746464 -0.0356197 0.18997172 -0.3324505 -0.53429544 -0.58178836
-0.49867576 -0.8786192 -0.0356197 -0.04749293 -0.0356197 -0.41556314 -0.46305606 -0.42743635
-0.5936616 -0.8786192 -0.011873232 -0.05936616 -0.011873232 -0.2968308 -0.47492927 -0.49867576
-0.5461687 -0.7717601 -0.04749293 -0.0712394 0.023746464 -0.35619697 -0.4393096 -0.37994343
-0.6292813 -0.5936616 -0.04749293 -0.10685909 0.11873232 -0.3324505 -0.48680252 -0.2968308
-0.67677426 -0.34432372 -0.0712394 -0.11873232 0.09498586 -0.2849576 -0.34432372 -0.16622525
-0.819253 -0.2255914 -0.11873232 -0.1424788 -0.0356197 -0.15435202 -0.2968308 -0.1424788
-0.67677426 -0.11873232 -0.1424788 -0.16622525 -0.15435202 -0.11873232 -0.2255914 -0.0712394
-0.48680252 -0.09498586 -0.16622525 -0.17809848 0.023746464 -0.0712394 -0.17809848 -0.04749293
-0.34432372 -0.11873232 -0.16622525 -0.16622525 0.16622525 -0.09498586 -0.13060555 -0.09498586
-0.30870405 -0.09498586 -0.17809848 -0.20184495 -0.20184495 -0.10685909 -0.1424788 -0.09498586
-0.41556314 -0.09498586 -0.16622525 -0.16622525 0.1424788 -0.08311263 -0.16622525 -0.0712394
0.4036899 0.09498586 -0.11873232 -0.1424788 -0.08311263 -0.023746464 0.4036899 0.08311263
0.18997172 -0.011873232 -0.13060555 -0.15435202 -0.13060555 -0.023746464 0.16622525 -0.10685909
0.1424788 0.2968308 -0.10685909 -0.16622525 0.1424788 0.0712394 -0.023746464 -0.011873232
0.08311263 0.11873232 -0.10685909 -0.21371818 -0.011873232 -0.05936616 0.05936616 -0.08311263
0.04749293 -0.04749293 -0.11873232 -0.21371818 -0.08311263 -0.04749293 0.08311263 -0.011873232
0.17809848 -0.0356197 -0.11873232 -0.27308434 0.0 -0.10685909 -0.023746464 0.0356197
0.011873232 0.15435202 -0.1424788 -0.3324505 -0.023746464 -0.09498586 0.05936616 -0.09498586
0.11873232 -0.0356197 -0.21371818 -0.37994343 -0.18997172 -0.08311263 -0.023746464 -0.08311263
0.023746464 0.13060555 -0.24933788 -0.42743635 0.16622525 -0.0712394 0.0712394 0.05936616
0.011873232 -0.08311263 -0.3324505 -0.4036899 -0.10685909 -0.05936616 -0.11873232 -0.11873232
-0.05936616 0.2255914 -0.42743635 -0.4393096 -0.13060555 0.011873232 -0.21371818 0.11873232
0.23746464 -0.11873232 -0.47492927 -0.46305606 0.0356197 -0.16622525 0.16622525 -0.04749293
-0.35619697 -0.21371818 -0.49867576 -0.510549 -0.1424788 -0.011873232 0.0712394 0.011873232
0.13060555 0.0356197 -0.510549 -0.49867576 0.09498586 0.04749293 -0.08311263 -0.0712394
0.011873232 0.0356197 -0.58178836 -0.5699152 -0.16622525 -0.1424788 0.05936616 0.05936616
0.21371818 -0.023746464 -0.6411545 -0.71239394 -0.08311263 -0.023746464 0.15435202 0.0
00000000: aed4 feff 0ebd a896 d7c7 fffe fad6 b2bc
00000010: d1c5 fffe fdea cdc0 d3bc fffd f9e0 b7c2
00000020: cbac fefd 10e4 d3cf d6b6 fdfc fddd d9dc
00000030: ceb6 fffb ffe7 d8d6 d2bf fcfa 02e2 dbe0
00000040: cbce fcf7 0ae4 d7e7 c7e3 faf6 08e8 e3f2
00000050: bbed f6f4 fdf3 e7f4 c7f6 f4f2 f3f6 edfa
00000060: d7f8 f2f1 02fa f1fc e3f6 f2f2 0ef8 f5f8
00000070: e6f8 f1ef eff7 f4f8 ddf8 f2f2 0cf9 f2fa
00000080: 2208 f6f4 f9fe 2207 10ff f5f3 f5fe 0ef7
00000090: 0c19 f7f2 0c06 feff 070a f7ee fffb 05f9
000000a0: 04fc f6ee f9fc 07ff 0ffd f6e9 00f7 fe03
000000b0: 010d f4e4 fef8 05f8 0afd eee0 f0f9 fef9
000000c0: 020b ebdc 0efa 0605 01f9 e4de f7fb f6f6
000000d0: fb13 dcdb f501 ee0a 14f6 d8d9 03f2 0efc
000000e0: e2ee d6d5 f4ff 0601 0b03 d5d6 0804 f9fa
000000f0: 0103 cfd0 f2f4 0505 12fe cac4 f9fe 0d00

sequential/conv1d_2/Conv1D i1 [8, 1, 3, 16]
-7 3 -15 2 -52 5 -5 -2
-11 10 -8 10 3 -2 22 12
-13 -6 -26 8 -127 13 0 9
-1 -7 -2 1 18 -19 13 12
-13 -18 3 11 -23 -1 11 6
5 -14 -21 11 23 3 17 -19
2 -44 110 27 -24 -29 78 -17
-46 23 56 0 -9 17 -39 -18
-32 -3 65 -12 -43 -64 127 44
1 22 39 46 13 -13 -1 -34
40 -35 69 30 -59 -36 123 -24
-61 58 21 37 -3 -14 -50 10
-71 11 -72 36 -4 20 -108 103
-42 -51 -37 -11 9 -32 31 103
-83 -10 54 80 24 61 -54 4
80 -77 -28 -33 -101 31 13 -37
42 -11 -7 61 58 41 -127 -68
70 -83 -35 25 4 -38 -33 34
15 -45 -25 -7 34 -1 -31 -1
34 5 -45 30 -2 -40 -44 24
44 41 -96 15 52 7 5 35
3 -32 -8 -20 7 -11 -25 12
-2 -11 -127 13 52 -25 -23 9
-5 -31 10 -14 49 29 12 57
30 -39 6 31 48 -83 -68 29
0 13 -36 -70 5 -111 -16 97
56 22 111 -87 -74 -65 -92 -27
-110 -27 50 -110 -16 -119 -80 -55
-7 53 16 -19 -109 -104 -40 -127
20 -69 88 100 79 94 -70 -57
-18 23 -12 32 -127 5 61 -25
-36 20 33 30 16 2 25 -12
00000000: f903 f102 cc05 fbfe f50a f80a 03fe 160c
00000010: f3fa e608 810d 0009 fff9 fe01 12ed 0d0c
00000020: f3ee 030b e9ff 0b06 05f2 eb0b 1703 11ed
00000030: 02d4 6e1b e8e3 4eef d217 3800 f711 d9ee
00000040: e0fd 41f4 d5c0 7f2c 0116 272e 0df3 ffde
00000050: 28dd 451e c5dc 7be8 c33a 1525 fdf2 ce0a
00000060: b90b b824 fc14 9467 d6cd dbf5 09e0 1f67
00000070: adf6 3650 183d ca04 50b3 e4df 9b1f 0ddb
00000080: 2af5 f93d 3a29 81bc 46ad dd19 04da df22
00000090: 0fd3 e7f9 22ff e1ff 2205 d31e fed8 d418
000000a0: 2c29 a00f 3407 0523 03e0 f8ec 07f5 e70c
000000b0: fef5 810d 34e7 e909 fbe1 0af2 311d 0c39
000000c0: 1ed9 061f 30ad bc1d 000d dcba 0591 f061
000000d0: 3816 6fa9 b6bf a4e5 92e5 3292 f089 b0c9
000000e0: f935 10ed 9398 d881 14bb 5864 4f5e bac7
000000f0: ee17 f420 8105 3de7 dc14 211e 1002 19f4

sequential/conv1d_1/Conv1D i1 [16, 1, 3, 32]
65 34 36 55 -10 -127 -36 115
-14 -23 -44 -17 -69 79 -39 22
-92 -14 51 -8 -13 65 3 -30
57 43 -28 -14 125 44 91 -25
24 -37 -76 113 1 43 -33 -56
-67 29 -42 -14 -87 104 -114 6
12 -78 -7 -42 -53 10 -48 5
-2 28 -1 -67 -69 72 73 -35
-62 -40 -7 36 -107 -24 -60 11
30 -40 -34 4 111 -40 -20 -32
-27 55 -28 36 39 43 -35 -12
-84 41 -36 -9 31 51 -54 109
0 73 4 32 -9 12 -44 -17
39 15 -7 9 60 -7 -26 43
-39 5 -12 59 52 4 64 10
87 -46 43 23 -28 25 51 -30
24 -90 41 26 -13 41 45 -5
10 -16 0 20 8 -34 -9 -39
51 49 47 34 -15 -46 32 -8
127 51 -53 -45 -13 31 -40 -25
0 15 42 31 28 84 14 -38
33 -14 -46 -31 41 42 50 11
-3 13 -28 58 45 -5 -67 -54
108 12 -36 -21 -21 -42 73 -6
29 -34 0 25 6 -2 8 -4
-2 -51 10 -29 5 -40 34 13
29 -61 -22 30 17 21 -7 -44
32 -14 -32 8 -28 5 12 23
-4 -127 25 -51 17 -6 -5 -9
-13 -41 -15 18 0 -20 14 4
12 -48 28 -21 -15 -35 35 21
6 -5 2 -5 13 9 -9 -1
00000000: 4122 2437 f681 dc73 f2e9 d4ef bb4f d916
00000010: a4f2 33f8 f341 03e2 392b e4f2 7d2c 5be7
00000020: 18db b471 012b dfc8 bd1d d6f2 a968 8e06
00000030: 0cb2 f9d6 cb0a d005 fe1c ffbd bb48 49dd
00000040: c2d8 f924 95e8 c40b 1ed8 de04 6fd8 ece0
00000050: e537 e424 272b ddf4 ac29 dcf7 1f33 ca6d
00000060: 0049 0420 f70c d4ef 270f f909 3cf9 e62b
00000070: d905 f43b 3404 400a 57d2 2b17 e419 33e2
00000080: 18a6 291a f329 2dfb 0af0 0014 08de f7d9
00000090: 3331 2f22 f1d2 20f8 7f33 cbd3 f31f d8e7
000000a0: 000f 2a1f 1c54 0eda 21f2 d2e1 292a 320b
000000b0: fd0d e43a 2dfb bdca 6c0c dceb ebd6 49fa
000000c0: 1dde 0019 06fe 08fc fecd 0ae3 05d8 220d
000000d0: 1dc3 ea1e 1115 f9d4 20f2 e008 e405 0c17
000000e0: fc81 19cd 11fa fbf7 f3d7 f112 00ec 0e04
000000f0: 0cd0 1ceb f1dd 2315 06fb 02fb 0d09 f7ff

sequential/conv1d/Conv1D i1 [32, 1, 4, 3]
127 -86 -122 -12 107 -105 90 -95
44 -35 78 1 -43 17 20 -30
127 36 -61 62 -49 -57 38 -104
-32 127 81 8 96 -103 -7 -33
-108 -93 92 26 -50 15 48 26
38 32 -42 72 127 4 -11 24
105 30 -36 0 -59 -24 -91 12
66 -70 101 -127 20 60 7 1
104 -127 -10 112 25 -32 -28 -101
-41 -34 -57 -70 96 -3 67 71
67 127 -26 -24 122 57 -109 -77
-42 -28 -57 -115 40 -85 -127 86
28 32 109 -70 -52 74 -70 25
-121 -6 34 127 3 87 -44 -15
127 29 -63 101 -24 15 -8 82
39 31 127 -8 -115 -123 -26 32
106 -51 -109 -36 -43 36 30 30
-36 -53 -21 -127 106 -106 -56 -126
61 -15 -127 -36 95 -63 -63 60
-77 53 106 43 -95 -106 -63 23
82 -127 -42 96 81 -2 97 88
4 -124 127 92 -8 87 45 -45
58 -29 -41 18 48 122 -68 10
104 45 14 45 -77 -50 87 -127
21 -16 32 59 47 -76 118 -127
36 14 -122 -91 -78 118 -1 -28
104 43 47 26 97 -80 38 -127
-110 -7 -127 -1 -45 51 -11 1
-27 -95 55 -85 -62 127 -111 88
32 11 56 109 -55 -10 -15 -63
-64 23 -16 -67 124 -103 36 127
-58 42 89 -99 -5 -8 4 -20
00000000: 7faa 86f4 6b97 5aa1 2cdd 4e01 d511 14e2
00000010: 7f24 c33e cfc7 2698 e07f 5108 6099 f9df
00000020: 94a3 5c1a ce0f 301a 2620 d648 7f04 f518
00000030: 691e dc00 c5e8 a50c 42ba 6581 143c 0701
00000040: 6881 f670 19e0 e49b d7de c7ba 60fd 4347
00000050: 437f e6e8 7a39 93b3 d6e4 c78d 28ab 8156
00000060: 1c20 6dba cc4a ba19 87fa 227f 0357 d4f1
00000070: 7f1d c165 e80f f852 271f 7ff8 8d85 e620
00000080: 6acd 93dc d524 1e1e dccb eb81 6a96 c882
00000090: 3df1 81dc 5fc1 c13c b335 6a2b a196 c117
000000a0: 5281 d660 51fe 6158 0484 7f5c f857 2dd3
000000b0: 3ae3 d712 307a bc0a 682d 0e2d b3ce 5781
000000c0: 15f0 203b 2fb4 7681 240e 86a5 b276 ffe4
000000d0: 682b 2f1a 61b0 2681 92f9 81ff d333 f501
000000e0: e5a1 37ab c27f 9158 200b 386d c9f6 f1c1
000000f0: c017 f0bd 7c99 247f c62a 599d fbf8 04ec
