processing/models/quantized/lstm_2024_08_28_16_48/lstm_2024_08_28_16_48.tflite (tflite, 29336 bytes, 8 tensors)

tfl.pseudo_qconst1 i1 [1, 10] scale=0.0045965873 zero_point=0
0.3263577 -0.3263577 0.5837666 0.18846008 0.57917 -0.3171645 -0.091931745 0.4642553
-0.3539372 0.4320792
00000000: 47b9 7f29 7ebb ec65 b35e

tfl.pseudo_qconst3 i1 [10, 5]
-82 43 52 -33 127 -127 -87 -29
6 16 -49 127 54 -94 -41 27
127 -5 84 102 114 85 -127 -99
109 127 114 22 45 -99 -13 -127
-84 72 10 -66 -127 -8 55 11
-87 1 123 127 124 -3 -54 127
-117 126
00000000: ae2b 34df 7f81 a9e3 0610 cf7f 36a2 d71b
00000010: 7ffb 5466 7255 819d 6d7f 7216 2d9d f381
00000020: ac48 0abe 81f8 370b a901 7b7f 7cfd ca7f
00000030: 8b7e

tfl.pseudo_qconst6 i1 [20] scale=0.0044651423 zero_point=-128
0.0 0.0 0.0089302845 0.04018628 0.14288455 1.0001919 1.0001919 1.0091221
1.0493084 1.1386113 0.0 0.0 0.062511995 0.089302845 0.08037256 0.0
0.0 0.0044651423 0.044651423 0.14288455
00000000: 8080 8289 a060 6062 6b7f 8080 8e94 9280
00000010: 8081 8aa0

tfl.pseudo_qconst7 i1 [20, 2]
20 -127 127 -124 127 -57 -67 127
113 -127 -127 127 -39 -127 -127 78
-105 -127 63 127 -31 -127 -67 -127
-27 127 30 127 63 -127 -127 38
-127 -103 63 -127 127 -97 127 -54
00000000: 1481 7f84 7fc7 bd7f 7181 817f d981 814e
00000010: 9781 3f7f e181 bd81 e57f 1e7f 3f81 8126
00000020: 8199 3f81 7f9f 7fca

tfl.pseudo_qconst8 i1 [20, 5]
-36 70 127 45 7 55 110 -127
52 65 -42 11 31 -127 -33 -127
-12 -43 64 -25 94 -1 127 -11
21 50 1 -119 -127 -127 35 71
-127 -32 0 127 38 24 -116 -56
-60 126 -45 13 -127 44 33 127
117 -31 -83 9 -2 -127 27 23
-110 -88 -127 35 -104 127 -113 -25
86 -15 -54 -113 72 127 -15 -127
17 33 -18 107 12 -127 123 -76
-115 -127 4 -95 -94 79 28 -40
-16 127 -83 83 56 35 127 44
127 30 -51 12
00000000: dc46 7f2d 0737 6e81 3441 d60b 1f81 df81
00000010: f4d5 40e7 5eff 7ff5 1532 0189 8181 2347
00000020: 81e0 007f 2618 8cc8 c47e d30d 812c 217f
00000030: 75e1 ad09 fe81 1b17 92a8 8123 987f 8fe7
00000040: 56f1 ca8f 487f f181 1121 ee6b 0c81 7bb4
00000050: 8d81 04a1 a24f 1cd8 f07f ad53 3823 7f2c
00000060: 7f1e cd0c

tfl.pseudo_qconst9 i1 [20] scale=0.00434229 zero_point=-118
0.01736916 0.06947664 -0.030396031 -0.01736916 0.039080612 1.0204382 1.0638611 0.9683307
0.98569983 1.0378073 0.052107483 0.08250351 -0.0434229 -0.01736916 0.052107483 0.02171145
0.065134354 -0.03473832 -0.01736916 0.04776519
00000000: 8e9a 8386 9375 7f69 6d79 969d 8086 968f
00000010: 9982 8695

tfl.pseudo_qconst10 i1 [20, 5]
-127 13 24 66 -10 127 19 -9
-33 -84 58 -73 64 74 127 -31
-95 42 127 -1 127 16 111 -2
-55 57 19 -114 127 -71 -127 -126
28 79 -21 72 -127 -42 -18 -95
-1 127 91 -56 -89 13 127 -30
-40 112 65 39 127 85 -10 127
83 69 49 -1 -127 88 -122 57
-57 -123 -31 -88 -4 127 -127 -23
60 16 110 70 47 127 124 -11
-17 -100 -74 -85 -127 68 89 127
-1 -52 -54 29 -127 14 -32 100
-34 127 109 -113
00000000: 810d 1842 f67f 13f7 dfac 3ab7 404a 7fe1
00000010: a12a 7fff 7f10 6ffe c939 138e 7fb9 8182
00000020: 1c4f eb48 81d6 eea1 ff7f 5bc8 a70d 7fe2
00000030: d870 4127 7f55 f67f 5345 31ff 8158 8639
00000040: c785 e1a8 fc7f 81e9 3c10 6e46 2f7f 7cf5
00000050: ef9c b6ab 8144 597f ffcc ca1d 810e e064
00000060: de7f 6d8f

tfl.pseudo_qconst11 i1 [20, 5]
-127 58 40 61 -70 127 -65 -4
19 -44 -27 -78 -8 127 48 32
-17 -30 -27 127 -30 -38 -30 -127
-10 -127 67 -87 -26 80 7 -76
18 12 127 39 -24 -127 -98 -92
-15 -51 127 13 -60 -13 40 -28
-44 127 37 -61 127 -13 87 14
121 -127 39 -82 -127 70 46 -14
30 -57 -127 7 -21 11 75 116
-127 11 19 -26 -38 -127 34 5
-127 -113 -99 -39 78 -1 127 26
97 13 -127 -89 -27 58 -42 71
14 -50 127 43
00000000: 813a 283d ba7f bffc 13d4 e5b2 f87f 3020
00000010: efe2 e57f e2da e281 f681 43a9 e650 07b4
00000020: 120c 7f27 e881 9ea4 f1cd 7f0d c4f3 28e4
00000030: d47f 25c3 7ff3 570e 7981 27ae 8146 2ef2
00000040: 1ec7 8107 eb0b 4b74 810b 13e6 da81 2205
00000050: 818f 9dd9 4eff 7f1a 610d 81a7 e53a d647
00000060: 0ece 7f2b
