processing/models/quantized/cnn_lstm_1000pt/cnn_lstm_1000pt.tflite (tflite, 18008 bytes, 6 tensors)

sequential/dense_1/MatMul i1 [1, 15] scale=0.0053561353 zero_point=0
00000000: b713 1db3 110f 0f22 0517 d708 3c81 da
-0.3909979 0.10176657 0.15532793 -0.41242242 0.0910543 0.08034203 0.08034203 0.1821086
0.026780676 0.12319111 -0.21960154 0.042849082 0.32136813 -0.6802292 -0.20353314

sequential/dense/MatMul i1 [15, 16] scale=0.0048217443 zero_point=0
00000000: 15da d719 feb4 2761 81c5 ed09 0403 4438
00000010: 3112 05ff 863f f3fc 43d2 e9e9 1c18 37e7
00000020: 1cf9 e75c 5cfa c23b ee25 9847 ea00 c508
00000030: 12d5 203a e5d4 f1ad bee7 de1a 1863 0c02
00000040: f7dc c9e5 0dd1 cf35 142e cdde 2afe c0fa
00000050: fe28 e319 fff9 32c3 0c19 34b2 34fb d455
00000060: 0b2c 50ff 9bcb da74 432a c5ef 3721 31e6
00000070: 4019 26f9 2aea 0483 0312 3df0 28fe 3a04
00000080: 05ee 1ccd 3054 2328 2df2 bfaa 5b3d 15a5
00000090: fbed be2a 0227 cf63 4b21 d74d 28df b729
000000a0: ffb4 22df 1db0 49fb f118 441d cbfd 5e5c
000000b0: 2f0c eab0 1e0d 060c 4d06 e9e5 2831 d5c8
000000c0: 2d0f 3ac4 ddd2 be16 f14c d200 c6b9 e5d7
000000d0: 07dd d3a2 aa00 a4ad d3ff 0f06 fc2f 03d6
000000e0: eb1f 8fc3 18c5 7569 d7ff 381e aa5a ff44
0.10125663 -0.18322629 -0.19769152 0.12054361 -0.009643489 -0.36645257 0.18804802 0.46770918
-0.61236155 -0.28448293 -0.09161314 0.043395698 0.019286977 0.014465233 0.32787862 0.27001768
0.23626547 0.086791396 0.024108721 -0.0048217443 -0.5882528 0.3037699 -0.06268267 -0.019286977
0.32305688 -0.22180024 -0.11090012 -0.11090012 0.13500884 0.11572187 0.26519594 -0.12054361
0.13500884 -0.03375221 -0.12054361 0.44360048 0.44360048 -0.028930467 -0.29894814 0.28448293
-0.086791396 0.17840454 -0.5014614 0.34234384 -0.10607837 0.0 -0.28448293 0.038573954
0.086791396 -0.20733501 0.15429582 0.27966118 -0.1301871 -0.21215674 -0.07232616 -0.40020478
-0.31823513 -0.12054361 -0.16393931 0.12536535 0.11572187 0.47735268 0.057860933 0.009643489
-0.043395698 -0.17358279 -0.26519594 -0.1301871 0.06268267 -0.22662199 -0.23626547 0.25555244
0.096434884 0.22180024 -0.24590896 -0.16393931 0.20251326 -0.009643489 -0.30859163 -0.028930467
-0.009643489 0.19286977 -0.13983059 0.12054361 -0.0048217443 -0.03375221 0.24108721 -0.2941264
0.057860933 0.12054361 0.2507307 -0.37609604 0.2507307 -0.024108721 -0.21215674 0.40984827
0.053039186 0.21215674 0.38573954 -0.0048217443 -0.48699617 -0.25555244 -0.18322629 0.55932236
0.32305688 0.20251326 -0.28448293 -0.081969656 0.26519594 0.15911756 0.23626547 -0.12536535
0.30859163 0.12054361 0.18322629 -0.03375221 0.20251326 -0.10607837 0.019286977 -0.60271806
0.014465233 0.086791396 0.2941264 -0.07714791 0.19286977 -0.009643489 0.27966118 0.019286977
0.024108721 -0.086791396 0.13500884 -0.24590896 0.23144373 0.40502653 0.16876104 0.19286977
0.21697849 -0.06750442 -0.31341338 -0.41467002 0.43877873 0.2941264 0.10125663 -0.43877873
-0.024108721 -0.09161314 -0.31823513 0.20251326 0.009643489 0.18804802 -0.23626547 0.47735268
0.36163083 0.15911756 -0.19769152 0.37127432 0.19286977 -0.15911756 -0.35198733 0.19769152
-0.0048217443 -0.36645257 0.16393931 -0.15911756 0.13983059 -0.38573954 0.35198733 -0.024108721
-0.07232616 0.11572187 0.32787862 0.13983059 -0.25555244 -0.014465233 0.45324397 0.44360048
0.22662199 0.057860933 -0.10607837 -0.38573954 0.14465232 0.06268267 0.028930467 0.057860933
0.37127432 0.028930467 -0.11090012 -0.1301871 0.19286977 0.23626547 -0.20733501 -0.27001768
0.21697849 0.07232616 0.27966118 -0.28930464 -0.16876104 -0.22180024 -0.31823513 0.10607837
-0.07232616 0.36645257 -0.22180024 0.0 -0.27966118 -0.34234384 -0.1301871 -0.19769152
0.03375221 -0.16876104 -0.21697849 -0.45324397 -0.41467002 0.0 -0.44360048 -0.40020478
-0.21697849 -0.0048217443 0.07232616 0.028930467 -0.019286977 0.22662199 0.014465233 -0.20251326
-0.10125663 0.14947407 -0.5448571 -0.2941264 0.11572187 -0.28448293 0.5641441 0.50628316
-0.19769152 -0.0048217443 0.27001768 0.14465232 -0.41467002 0.43395698 -0.0048217443 0.32787862

sequential/conv1d/Conv1D i1 [16, 1, 4, 3]
00000000: 325b bf1e 3db7 e04e ae35 7ff3 6790 40aa
00000010: a995 3817 4be5 81f9 81e4 1fb6 3c97 9557
00000020: 9bfb 080a 2d8c 46e2 c71f 5481 f33b ad06
00000030: 43f7 10df e072 dfbb 9dfd ee81 428e 317f
00000040: fc5a ea1c 9f4e 873d 1076 98b8 7f3d cdf0
00000050: 70de 09c1 3c5a a67f 2ef1 5f04 a07c dbd5
00000060: 1c67 f842 cb81 dd9f 3f49 aa01 c749 d265
00000070: 0781 7560 150c fb3e 93d6 46b1 8fde cde3
00000080: 3770 813a 48cf a140 fca1 7fce 542b 1c55
00000090: 13cf 30e6 c7cd 0c02 3736 7feb 1692 9875
000000a0: a081 f8f0 0452 e115 7feb 7323 844b fa84
000000b0: 1fc7 d674 1cf7 ae17 9d91 81fe d2ce 1490
50 91 -65 30 61 -73 -32 78
-82 53 127 -13 103 -112 64 -86
-87 -107 56 23 75 -27 -127 -7
-127 -28 31 -74 60 -105 -107 87
-101 -5 8 10 45 -116 70 -30
-57 31 84 -127 -13 59 -83 6
67 -9 16 -33 -32 114 -33 -69
-99 -3 -18 -127 66 -114 49 127
-4 90 -22 28 -97 78 -121 61
16 118 -104 -72 127 61 -51 -16
112 -34 9 -63 60 90 -90 127
46 -15 95 4 -96 124 -37 -43
28 103 -8 66 -53 -127 -35 -97
63 73 -86 1 -57 73 -46 101
7 -127 117 96 21 12 -5 62
-109 -42 70 -79 -113 -34 -51 -29
55 112 -127 58 72 -49 -95 64
-4 -95 127 -50 84 43 28 85
19 -49 48 -26 -57 -51 12 2
55 54 127 -21 22 -110 -104 117
-96 -127 -8 -16 4 82 -31 21
127 -21 115 35 -124 75 -6 -124
31 -57 -42 116 28 -9 -82 23
-99 -111 -127 -2 -46 -50 20 -112

sequential/lstm/Read_2/ReadVariableOp1 i1 [64] scale=0.0051308176 zero_point=-114
00000000: af99 9380 929b 8e8d 919e aba1 a4a8 8c9e
00000010: 7f57 5347 5957 5051 5460 5a60 6967 585b
00000020: 8f8d 9888 8f88 8f92 8b93 8d86 8c8e 908a
00000030: b29c 8d85 9399 908a 9ba7 baae aeaa 999f
0.16931698 0.056438994 0.025654089 -0.07183145 0.02052327 0.06670063 0.0 -0.0051308176
0.0153924525 0.08209308 0.14879371 0.097485535 0.11287799 0.13340126 -0.010261635 0.08209308
1.2365271 1.0312943 1.010771 0.9492013 1.041556 1.0312943 0.9953786 1.0005095
1.0159019 1.0774717 1.0466868 1.0774717 1.1236491 1.1133875 1.0364251 1.0518177
0.0051308176 -0.0051308176 0.051308177 -0.030784905 0.0051308176 -0.030784905 0.0051308176 0.02052327
-0.0153924525 0.025654089 -0.0051308176 -0.04104654 -0.010261635 0.0 0.010261635 -0.02052327
0.18470943 0.07183145 -0.0051308176 -0.046177357 0.025654089 0.056438994 0.010261635 -0.02052327
0.06670063 0.12827045 0.22575597 0.16418616 0.16418616 0.1436629 0.056438994 0.0872239

while/MatMul i1 [64, 16] scale=0.009865178 zero_point=0
00000000: 1510 12ff ef1e 13ea e70b cfef ff09 e603
00000010: 1c09 1ffc 18e4 1d00 fcf7 0df5 d2ff f611
00000020: 00df f9ef 0a0d ca23 18f6 eb07 ed0c f4ff
00000030: 05ff 12cd f40c d60a 0e07 0e0a dfe8 23f0
00000040: f406 f0f1 edf1 e4e5 0dee f3ed f5e8 1c02
00000050: ff13 ee22 130a bd1a 3706 d125 fd01 f203
00000060: ff0b fe17 e8ec 0310 1ff2 0a07 f4fe ef03
00000070: 081c 1827 1f1d da0b 1ef5 1618 08f7 f40d
00000080: ee06 e434 0327 0cf2 fb07 fb18 011f eaf4
00000090: 15da 1efa 0ee6 25f0 fb03 0402 f6ec 1d20
000000a0: 102f e82a 170e da03 01f0 d607 f736 221e
000000b0: 15e8 1105 02c5 feda f0d4 f7d4 ccf4 fde3
000000c0: 0617 17d5 f7e6 1c14 12eb 3c1a e30c 3402
000000d0: 2de9 13db f404 560d 1013 dfe3 f4eb 0ff8
000000e0: f70f df7f fc42 be29 5613 214d 262f f6e8
000000f0: 12f4 04fb 1e1b 17f1 19f4 0d1f fc10 f609
0.20716873 0.15784284 0.1775732 -0.009865178 -0.16770802 0.29595533 0.18743838 -0.21703391
-0.24662945 0.108516954 -0.4833937 -0.16770802 -0.009865178 0.0887866 -0.2564946 0.029595533
0.27622497 0.0887866 0.30582052 -0.03946071 0.23676427 -0.27622497 0.28609017 0.0
-0.03946071 -0.0887866 0.1282473 -0.108516954 -0.45379817 -0.009865178 -0.09865178 0.16770802
0.0 -0.32555085 -0.06905624 -0.16770802 0.09865178 0.1282473 -0.5327196 0.3452812
0.23676427 -0.09865178 -0.20716873 0.06905624 -0.18743838 0.11838213 -0.11838213 -0.009865178
0.04932589 -0.009865178 0.1775732 -0.50312406 -0.11838213 0.11838213 -0.41433746 0.09865178
0.13811249 0.06905624 0.13811249 0.09865178 -0.32555085 -0.23676427 0.3452812 -0.15784284
-0.11838213 0.059191067 -0.15784284 -0.14797767 -0.18743838 -0.14797767 -0.27622497 -0.2663598
0.1282473 -0.1775732 -0.1282473 -0.18743838 -0.108516954 -0.23676427 0.27622497 0.019730356
-0.009865178 0.18743838 -0.1775732 0.33541605 0.18743838 0.09865178 -0.66096693 0.2564946
0.5425848 0.059191067 -0.46366337 0.36501157 -0.029595533 0.009865178 -0.13811249 0.029595533
-0.009865178 0.108516954 -0.019730356 0.22689909 -0.23676427 -0.19730356 0.029595533 0.15784284
0.30582052 -0.13811249 0.09865178 0.06905624 -0.11838213 -0.019730356 -0.16770802 0.029595533
0.07892142 0.27622497 0.23676427 0.38474193 0.30582052 0.28609017 -0.37487677 0.108516954
0.29595533 -0.108516954 0.21703391 0.23676427 0.07892142 -0.0887866 -0.11838213 0.1282473
-0.1775732 0.059191067 -0.27622497 0.5129892 0.029595533 0.38474193 0.11838213 -0.13811249
-0.04932589 0.06905624 -0.04932589 0.23676427 0.009865178 0.30582052 -0.21703391 -0.11838213
0.20716873 -0.37487677 0.29595533 -0.059191067 0.13811249 -0.2564946 0.36501157 -0.15784284
-0.04932589 0.029595533 0.03946071 0.019730356 -0.09865178 -0.19730356 0.28609017 0.3156857
0.15784284 0.46366337 -0.23676427 0.41433746 0.22689909 0.13811249 -0.37487677 0.029595533
0.009865178 -0.15784284 -0.41433746 0.06905624 -0.0887866 0.5327196 0.33541605 0.29595533
0.20716873 -0.23676427 0.16770802 0.04932589 0.019730356 -0.5820455 -0.019730356 -0.37487677
-0.15784284 -0.43406782 -0.0887866 -0.43406782 -0.5129892 -0.11838213 -0.029595533 -0.28609017
0.059191067 0.22689909 0.22689909 -0.42420265 -0.0887866 -0.2564946 0.27622497 0.19730356
0.1775732 -0.20716873 0.59191066 0.2564946 -0.28609017 0.11838213 0.5129892 0.019730356
0.443933 -0.22689909 0.18743838 -0.36501157 -0.11838213 0.03946071 0.8484053 0.1282473
0.15784284 0.18743838 -0.32555085 -0.28609017 -0.11838213 -0.20716873 0.14797767 -0.07892142
-0.0887866 0.14797767 -0.32555085 1.2528776 -0.03946071 0.6511017 -0.6511017 0.4044723
0.8484053 0.18743838 0.32555085 0.7596187 0.37487677 0.46366337 -0.09865178 -0.23676427
0.1775732 -0.11838213 0.03946071 -0.04932589 0.29595533 0.2663598 0.22689909 -0.14797767
0.24662945 -0.11838213 0.1282473 0.30582052 -0.03946071 0.15784284 -0.09865178 0.0887866

while/MatMul_11 i1 [64, 16] scale=0.0077174176 zero_point=0
00000000: 0514 0e21 19e1 04fb 1e0c 0303 f3fe fafc
00000010: 14fd 0ae8 1b17 fcf2 1812 d2d4 0ae9 0202
00000020: f918 fceb 0d06 fefc 0f05 3115 f404 1804
00000030: 00ee 03f2 eaf0 0cf5 041f 05ac dad0 fd06
00000040: f400 f8e9 0bff 04fb 2213 e7e7 f8f8 11e7
00000050: 0b0e 2602 04ff e6f4 fa1e 17ec 01f5 d0fd
00000060: 1708 f20a 1e09 dcfc f3eb fafd e714 fd10
00000070: 0e15 f60b fdee 1e04 1024 d8fb 1bfc 210b
00000080: 1bed f800 1506 f8fa 0a2d 0315 1ee1 f0f5
00000090: fc10 f407 1e0b f22a f313 0df6 d9fb 25ea
000000a0: 2c1a 1919 253d e522 2933 0081 3de0 f6e3
000000b0: 1f19 191c 06e8 08fa 1a20 e9ec f2e0 fbe7
000000c0: f925 ddf9 0726 ebe8 4f09 b99e 1be2 4ff9
000000d0: 09fa ff02 f905 f502 eeec fa2d eff9 b606
000000e0: 011a 0c14 2b24 f629 0508 1afd 2a09 0006
000000f0: eeec 1a01 1c02 02f2 00ec 04dd 17fe 1af5
0.038587086 0.15434834 0.10804385 0.2546748 0.19293544 -0.23923995 0.03086967 -0.038587086
0.23152253 0.09260901 0.023152253 0.023152253 -0.10032643 -0.015434835 -0.046304505 -0.03086967
0.15434834 -0.023152253 0.07717417 -0.18521802 0.20837027 0.1775006 -0.03086967 -0.10804385
0.18521802 0.13891351 -0.3550012 -0.33956638 0.07717417 -0.1775006 0.015434835 0.015434835
-0.054021925 0.18521802 -0.03086967 -0.16206577 0.10032643 0.046304505 -0.015434835 -0.03086967
0.115761265 0.038587086 0.37815347 0.16206577 -0.09260901 0.03086967 0.18521802 0.03086967
0.0 -0.13891351 0.023152253 -0.10804385 -0.16978319 -0.12347868 0.09260901 -0.084891595
0.03086967 0.23923995 0.038587086 -0.6482631 -0.29326186 -0.37043604 -0.023152253 0.046304505
-0.09260901 0.0 -0.06173934 -0.1775006 0.084891595 -0.0077174176 0.03086967 -0.038587086
0.2623922 0.14663093 -0.19293544 -0.19293544 -0.06173934 -0.06173934 0.1311961 -0.19293544
0.084891595 0.10804385 0.29326186 0.015434835 0.03086967 -0.0077174176 -0.20065285 -0.09260901
-0.046304505 0.23152253 0.1775006 -0.15434834 0.0077174176 -0.084891595 -0.37043604 -0.023152253
0.1775006 0.06173934 -0.10804385 0.07717417 0.23152253 0.069456756 -0.27782702 -0.03086967
-0.10032643 -0.16206577 -0.046304505 -0.023152253 -0.19293544 0.15434834 -0.023152253 0.12347868
0.10804385 0.16206577 -0.07717417 0.084891595 -0.023152253 -0.13891351 0.23152253 0.03086967
0.12347868 0.27782702 -0.3086967 -0.038587086 0.20837027 -0.03086967 0.2546748 0.084891595
0.20837027 -0.14663093 -0.06173934 0.0 0.16206577 0.046304505 -0.06173934 -0.046304505
0.07717417 0.34728378 0.023152253 0.16206577 0.23152253 -0.23923995 -0.12347868 -0.084891595
-0.03086967 0.12347868 -0.09260901 0.054021925 0.23152253 0.084891595 -0.10804385 0.32413155
-0.10032643 0.14663093 0.10032643 -0.07717417 -0.3009793 -0.038587086 0.28554446 -0.16978319
0.33956638 0.20065285 0.19293544 0.19293544 0.28554446 0.47076246 -0.20837027 0.2623922
0.31641412 0.3935883 0.0 -0.980112 0.47076246 -0.24695736 -0.07717417 -0.22380511
0.23923995 0.19293544 0.19293544 0.2160877 0.046304505 -0.18521802 0.06173934 -0.046304505
0.20065285 0.24695736 -0.1775006 -0.15434834 -0.10804385 -0.24695736 -0.038587086 -0.19293544
-0.054021925 0.28554446 -0.27010962 -0.054021925 0.054021925 0.29326186 -0.16206577 -0.18521802
0.609676 0.069456756 -0.5479366 -0.75630695 0.20837027 -0.23152253 0.609676 -0.054021925
0.069456756 -0.046304505 -0.0077174176 0.015434835 -0.054021925 0.038587086 -0.084891595 0.015434835
-0.13891351 -0.15434834 -0.046304505 0.34728378 -0.1311961 -0.054021925 -0.5710889 0.046304505
0.0077174176 0.20065285 0.09260901 0.15434834 0.33184895 0.27782702 -0.07717417 0.31641412
0.038587086 0.06173934 0.20065285 -0.023152253 0.32413155 0.069456756 0.0 0.046304505
-0.13891351 -0.15434834 0.20065285 0.0077174176 0.2160877 0.015434835 0.015434835 -0.10804385
0.0 -0.15434834 0.03086967 -0.27010962 0.1775006 -0.015434835 0.20065285 -0.084891595
