processing/models/quantized/cnn_500pt/cnn_500pt.tflite (tflite, 12352 bytes, 5 tensors)

sequential/dense_1/MatMul i1 [1, 15] scale=0.00631862 zero_point=0
-0.7266413 0.6508179 0.5244455 0.77719027 0.5054896 -0.8024647 -0.68241096 0.7582344
0.5497199 0.58763164 -0.6697737 0.55603856 0.32856825 -0.8024647 -0.7961461
00000000: 8d67 537b 5081 9478 575d 9658 3481 82

sequential/dense/MatMul i1 [15, 56] scale=0.01328841 zero_point=0
-0.58469003 -0.18603775 -0.6245553 -0.41194072 -0.518248 0.01328841 -0.22590297 -0.66442055
-0.34549868 0.02657682 -0.31892186 -0.49167117 -0.30563343 -0.01328841 0.1328841 -0.2657682
-0.5315364 0.05315364 -0.518248 -0.29234502 -0.47838277 -0.02657682 -0.31892186 -0.2790566
-0.43851754 0.01328841 -0.42522913 -0.19932616 -0.31892186 -0.1328841 -0.11959569 -0.19932616
-0.29234502 0.0 -0.2657682 -0.42522913 -0.2657682 -0.1328841 -0.29234502 -0.3720755
-0.10630728 -0.11959569 -0.10630728 -0.31892186 -0.11959569 -0.31892186 -0.2524798 -0.10630728
-0.079730466 -0.2524798 -0.093018875 -0.2657682 -0.2657682 -0.039865233 -0.29234502 -0.17274934
0.079730466 0.54482484 -0.14617251 0.46509436 0.039865233 -0.17274934 -0.093018875 -0.039865233
0.21261457 0.19932616 -0.11959569 0.17274934 0.15946093 -0.2524798 0.01328841 0.02657682
-0.10630728 0.31892186 -0.10630728 0.039865233 -0.05315364 -0.43851754 0.039865233 0.039865233
0.01328841 0.10630728 -0.14617251 0.05315364 -0.01328841 -0.70428574 0.3587871 0.17274934
-0.2524798 0.14617251 -0.01328841 0.079730466 0.22590297 -0.98334235 -0.21261457 0.10630728
0.093018875 -0.079730466 -0.05315364 -0.18603775 -0.06644205 -0.970054 -0.10630728 -0.05315364
-0.14617251 0.05315364 -0.19932616 0.19932616 0.22590297 -0.9301887 0.29234502 0.0
-0.14617251 0.39865232 -0.06644205 0.39865232 0.2524798 -0.079730466 -0.2657682 -0.21261457
-0.23919138 0.06644205 0.10630728 0.079730466 0.22590297 -0.093018875 0.29234502 0.06644205
0.11959569 0.41194072 0.039865233 0.19932616 -0.05315364 -0.21261457 0.42522913 -0.06644205
-0.15946093 0.2790566 -0.093018875 0.093018875 0.0 -0.6777089 0.15946093 0.039865233
-0.039865233 0.11959569 0.05315364 0.0 0.06644205 -1.195957 0.30563343 0.06644205
0.01328841 0.2524798 0.10630728 -0.093018875 -0.093018875 -1.3952831 0.19932616 0.093018875
0.10630728 0.14617251 -0.06644205 0.1328841 0.06644205 -1.2092453 -0.18603775 -0.41194072
-0.06644205 0.3853639 -0.039865233 0.23919138 0.46509436 -0.039865233 -0.17274934 0.01328841
-0.01328841 0.45180595 -0.039865233 -0.01328841 0.01328841 -0.05315364 0.11959569 -0.2790566
-0.15946093 0.3720755 0.039865233 0.2524798 -0.039865233 -0.11959569 0.10630728 0.02657682
0.3720755 0.15946093 -0.14617251 0.01328841 -0.2657682 -0.61126685 0.18603775 -0.1328841
0.05315364 0.21261457 -0.06644205 0.11959569 -0.079730466 -0.8903235 0.30563343 -0.18603775
0.14617251 0.19932616 -0.06644205 0.01328841 -0.10630728 -1.0497844 -0.039865233 -0.19932616
-0.10630728 0.33221027 0.22590297 0.11959569 -0.11959569 -1.1295149 0.0 -0.1328841
-0.58469003 0.39865232 0.18603775 0.42522913 0.14617251 -0.039865233 -0.2790566 -0.039865233
0.21261457 0.079730466 0.05315364 0.43851754 0.18603775 -0.06644205 0.31892186 -0.01328841
0.093018875 0.11959569 -0.47838277 0.19932616 0.23919138 -0.17274934 0.2657682 -0.1328841
0.079730466 0.45180595 0.18603775 -0.05315364 0.1328841 -0.54482484 0.093018875 -0.34549868
00000000: d4f2 d1e1 d901 efce e602 e8db e9ff 0aec
00000010: d804 d9ea dcfe e8eb df01 e0f1 e8f6 f7f1
00000020: ea00 ece0 ecf6 eae4 f8f7 f8e8 f7e8 edf8
00000030: faed f9ec ecfd eaf3 0629 f523 03f3 f9fd
00000040: 100f f70d 0ced 0102 f818 f803 fcdf 0303
00000050: 0108 f504 ffcb 1b0d ed0b ff06 11b6 f008
00000060: 07fa fcf2 fbb7 f8fc f504 f10f 11ba 1600
00000070: f51e fb1e 13fa ecf0 ee05 0806 11f9 1605
00000080: 091f 030f fcf0 20fb f415 f907 00cd 0c03
00000090: fd09 0400 05a6 1705 0113 08f9 f997 0f07
000000a0: 080b fb0a 05a5 f2e1 fb1d fd12 23fd f301
000000b0: ff22 fdff 01fc 09eb f41c 0313 fdf7 0802
000000c0: 1c0c f501 ecd2 0ef6 0410 fb09 fabd 17f2
000000d0: 0b0f fb01 f8b1 fdf1 f819 1109 f7ab 00f6
000000e0: d41e 0e20 0bfd ebfd 1006 0421 0efb 18ff
000000f0: 0709 dc0f 12f3 14f6 0622 0efc 0ad7 07e6

sequential/conv1d_2/Conv1D i1 [8, 1, 3, 16]
-49 127 75 107 21 61 -22 28
-58 85 -46 56 16 -20 60 -81
7 102 62 34 -19 30 -5 -13
-68 11 -9 31 -51 -36 37 -44
-41 92 67 89 3 46 -23 34
-59 23 -20 -36 18 -21 66 -65
-21 6 15 11 6 10 -25 43
-76 19 -15 14 -13 -32 13 -29
-26 11 -7 -15 38 50 -2 2
-100 39 -39 -5 -38 4 24 -49
-28 18 51 37 13 10 -39 7
-127 23 -25 33 -12 -36 38 -47
-15 127 88 92 26 27 -4 18
-41 64 -30 42 -49 -6 52 -42
-9 110 75 54 21 18 -19 8
-44 25 -9 26 8 -54 30 -10
-22 86 80 74 49 51 10 -41
-36 0 -27 -32 -25 -11 77 -56
-5 10 44 68 32 -56 38 -32
-33 41 39 -30 12 -124 -44 -10
-32 75 20 -5 56 -18 -25 18
8 53 -29 -25 -7 -77 43 21
-1 53 -127 91 46 -105 -22 -45
-52 17 -47 46 -6 -26 123 -50
-34 52 39 34 -37 49 10 46
-98 59 -43 48 50 -33 11 -88
-37 70 28 0 -21 72 -25 26
-127 53 10 -12 22 -62 -1 -57
-36 67 64 56 8 55 -16 -3
-82 41 -49 17 -4 -33 74 -77
0 -114 -23 -26 -27 6 -42 2
41 -11 -52 -24 36 -50 -7 28
00000000: cf7f 4b6b 153d ea1c c655 d238 10ec 3caf
00000010: 0766 3e22 ed1e fbf3 bc0b f71f cddc 25d4
00000020: d75c 4359 032e e922 c517 ecdc 12eb 42bf
00000030: eb06 0f0b 060a e72b b413 f10e f3e0 0de3
00000040: e60b f9f1 2632 fe02 9c27 d9fb da04 18cf
00000050: e412 3325 0d0a d907 8117 e721 f4dc 26d1
00000060: f17f 585c 1a1b fc12 d740 e22a cffa 34d6
00000070: f76e 4b36 1512 ed08 d419 f71a 08ca 1ef6
00000080: ea56 504a 3133 0ad7 dc00 e5e0 e7f5 4dc8
00000090: fb0a 2c44 20c8 26e0 df29 27e2 0c84 d4f6
000000a0: e04b 14fb 38ee e712 0835 e3e7 f9b3 2b15
000000b0: ff35 815b 2e97 ead3 cc11 d12e fae6 7bce
000000c0: de34 2722 db31 0a2e 9e3b d530 32df 0ba8
000000d0: db46 1c00 eb48 e71a 8135 0af4 16c2 ffc7
000000e0: dc43 4038 0837 f0fd ae29 cf11 fcdf 4ab3
000000f0: 008e e9e6 e506 d602 29f5 cce8 24ce f91c

sequential/conv1d_1/Conv1D i1 [16, 1, 3, 32]
73 30 60 34 34 27 79 -74
-2 18 48 -17 -52 4 -29 -26
46 99 -9 58 26 -68 -64 11
38 94 -76 4 27 63 -110 -24
79 99 40 94 69 38 -66 -64
-60 -61 96 -22 -31 -61 4 60
65 103 -33 6 13 -68 14 97
-42 28 -69 -21 -41 58 -88 -21
101 -8 24 -50 95 2 96 -117
-37 31 80 67 2 -66 28 117
127 7 44 8 -20 8 -12 -8
-66 8 -9 -38 46 114 18 7
38 8 -18 32 -46 51 21 23
16 27 -22 -14 -100 -3 -29 4
-49 47 23 -7 27 6 60 41
18 -9 -13 39 -18 -29 -46 -78
49 -44 10 -43 -23 -20 72 -46
-19 -28 17 2 -127 -63 43 62
23 -30 55 76 40 -16 -13 -44
-87 -29 44 -29 -63 5 -31 -24
-36 40 -44 24 12 -1 -22 -36
-47 -12 -18 21 24 -44 -5 72
-1 -8 -28 13 -22 0 -4 -49
-6 15 21 18 29 42 -30 -16
-28 39 -9 -50 -33 -8 41 -4
2 40 -1 0 4 -21 -43 -45
32 -20 -69 33 79 -25 -6 26
19 -32 -32 5 24 50 37 72
-2 -35 -16 -10 -17 20 23 9
-8 10 -29 1 17 -4 17 -127
-3 8 -53 33 14 -83 47 4
32 15 3 -47 15 12 -3 34
00000000: 491e 3c22 221b 4fb6 fe12 30ef cc04 e3e6
00000010: 2e63 f73a 1abc c00b 265e b404 1b3f 92e8
00000020: 4f63 285e 4526 bec0 c4c3 60ea e1c3 043c
00000030: 4167 df06 0dbc 0e61 d61c bbeb d73a a8eb
00000040: 65f8 18ce 5f02 608b db1f 5043 02be 1c75
00000050: 7f07 2c08 ec08 f4f8 be08 f7da 2e72 1207
00000060: 2608 ee20 d233 1517 101b eaf2 9cfd e304
00000070: cf2f 17f9 1b06 3c29 12f7 f327 eee3 d2b2
00000080: 31d4 0ad5 e9ec 48d2 ede4 1102 81c1 2b3e
00000090: 17e2 374c 28f0 f3d4 a9e3 2ce3 c105 e1e8
000000a0: dc28 d418 0cff eadc d1f4 ee15 18d4 fb48
000000b0: fff8 e40d ea00 fccf fa0f 1512 1d2a e2f0
000000c0: e427 f7ce dff8 29fc 0228 ff00 04eb d5d3
000000d0: 20ec bb21 4fe7 fa1a 13e0 e005 1832 2548
000000e0: fedd f0f6 ef14 1709 f80a e301 11fc 1181
000000f0: fd08 cb21 0ead 2f04 200f 03d1 0f0c fd22

sequential/conv1d/Conv1D i1 [32, 1, 4, 3]
-127 78 -74 -60 17 3 55 -2
-104 28 44 -73 -96 77 127 -58
-32 86 53 18 30 35 4 31
-39 -59 -118 127 36 -21 -21 91
-94 111 -60 105 -18 -22 -86 -33
-20 8 17 -127 20 43 -111 36
-18 42 9 90 39 -55 -85 86
33 3 35 -127 -28 -41 32 -12
-127 5 45 -121 -107 15 -83 40
-51 29 -62 105 81 -63 -116 77
72 127 -114 -52 34 -63 -89 -38
-29 -85 -71 63 -40 -13 -127 17
-51 -67 -58 -44 -51 -64 39 -127
-77 -15 -94 -48 78 127 -10 -79
69 -99 59 98 -37 28 -89 -16
-25 19 -114 -18 -25 40 65 45
0 53 107 -127 127 113 -61 -84
-88 -100 95 -28 109 -3 -7 -87
8 -97 -96 -44 -79 -24 76 -127
116 114 35 60 87 -127 42 -67
-75 -8 -13 -102 -25 47 65 15
-47 -41 -31 -41 -100 67 18 -127
-107 41 -29 -10 -2 117 -12 -121
123 21 -63 95 -87 40 -34 127
23 18 3 -44 120 2 48 -39
-127 -27 104 -54 65 68 -125 -45
-5 43 83 127 -73 -54 -25 20
17 9 -32 -50 62 127 -31 123
-7 -49 9 -1 -98 -55 -95 -41
18 38 40 127 46 59 38 -61
-116 5 127 -50 106 33 -19 53
-84 -58 30 122 -92 127 42 -70
00000000: 814e b6c4 1103 37fe 981c 2cb7 a04d 7fc6
00000010: e056 3512 1e23 041f d9c5 8a7f 24eb eb5b
00000020: a26f c469 eeea aadf ec08 1181 142b 9124
00000030: ee2a 095a 27c9 ab56 2103 2381 e4d7 20f4
00000040: 8105 2d87 950f ad28 cd1d c269 51c1 8c4d
00000050: 487f 8ecc 22c1 a7da e3ab b93f d8f3 8111
00000060: cdbd c6d4 cdc0 2781 b3f1 a2d0 4e7f f6b1
00000070: 459d 3b62 db1c a7f0 e713 8eee e728 412d
00000080: 0035 6b81 7f71 c3ac a89c 5fe4 6dfd f9a9
00000090: 089f a0d4 b1e8 4c81 7472 233c 5781 2abd
000000a0: b5f8 f39a e72f 410f d1d7 e1d7 9c43 1281
000000b0: 9529 e3f6 fe75 f487 7b15 c15f a928 de7f
000000c0: 1712 03d4 7802 30d9 81e5 68ca 4144 83d3
000000d0: fb2b 537f b7ca e714 1109 e0ce 3e7f e17b
000000e0: f9cf 09ff 9ec9 a1d7 1226 287f 2e3b 26c3
000000f0: 8c05 7fce 6a21 ed35 acc6 1e7a a47f 2aba
