processing/models/quantized/cnn_lstm_500pt/cnn_lstm_500pt.tflite (tflite, 18008 bytes, 6 tensors)

sequential/dense_1/MatMul i1 [1, 15] scale=0.0048320587 zero_point=0
0.13529764 0.39139676 0.11113735 0.23193881 -0.3140838 -0.33341205 0.053152647 0.07248088
0.40106088 -0.2222747 0.09180912 -0.43971735 -0.6136715 -0.34790823 0.101473235
00000000: 1c51 1730 bfbb 0b0f 53d2 13a5 81b8 15

sequential/dense/MatMul i1 [15, 16] scale=0.006301308 zero_point=0
0.3213667 0.17013532 -0.19534054 -0.05671177 -0.22684708 -0.107122235 0.006301308 -0.025205232
-0.27095625 -0.27095625 0.09451962 0.20164186 -0.050410464 -0.28355888 0.28986016 0.26465493
0.40328372 -0.28986016 -0.2331484 0.35917455 0.37177718 0.24575101 -0.24575101 -0.17643663
-0.03780785 0.1575327 -0.44739288 -0.006301308 0.04410916 0.09451962 0.006301308 -0.44109157
-0.5419125 0.06931439 -0.06301308 -0.025205232 -0.25835362 -0.2331484 0.09451962 0.24575101
-0.163834 -0.025205232 0.28355888 -0.35287327 0.27095625 -0.44109157 0.25835362 -0.37177718
-0.006301308 0.48520073 0.10082093 0.10082093 0.018903924 -0.18273793 0.050410464 -0.3087641
0.050410464 0.3969824 -0.327668 0.012602616 -0.10082093 -0.012602616 0.18903925 0.11342354
0.25835362 -0.17643663 0.20164186 0.3780785 0.3969824 -0.20794317 -0.11342354 0.49780333
-0.327668 0.20164186 -0.36547586 0.23944971 0.3213667 0.23944971 0.0756157 0.327668
-0.28986016 -0.24575101 0.1575327 -0.14493008 -0.03780785 -0.42848894 -0.3150654 -0.1575327
0.27725756 0.04410916 -0.37177718 0.17643663 -0.22054578 -0.119724855 0.050410464 -0.18903925
-0.09451962 0.119724855 -0.163834 0.20794317 0.13862878 0.3906811 0.05671177 -0.33396932
0.28986016 0.119724855 0.119724855 -0.37177718 0.25835362 0.33396932 -0.025205232 -0.44739288
0.08821832 0.050410464 -0.80026615 0.3969824 -0.06931439 -0.06301308 0.28986016 -0.3843798
0.29616147 0.21424447 0.40958503 -0.27095625 0.06931439 -0.22054578 0.0 0.12602615
0.3780785 0.0 -0.09451962 0.20164186 -0.42218763 -0.0756157 -0.1512314 0.06301308
0.025205232 -0.17013532 0.13862878 -0.2331484 0.56711775 0.081917 0.19534054 -0.19534054
0.35917455 0.018903924 0.7309517 -0.08821832 0.20794317 -0.72465044 -0.18903925 -0.09451962
-0.1575327 -0.03780785 -0.25835362 0.3024628 0.10082093 -0.012602616 -0.13862878 0.0756157
-0.23944971 0.11342354 0.0 -0.163834 0.018903924 0.24575101 0.34657195 0.35917455
-0.081917 0.19534054 -0.18273793 -0.44739288 0.327668 0.018903924 0.21424447 -0.3213667
0.2520523 0.21424447 0.58602166 -0.35287327 -0.42848894 -0.13862878 -0.28355888 -0.3024628
0.006301308 0.23944971 0.33396932 0.2331484 -0.0756157 0.163834 -0.5482138 -0.025205232
0.58602166 -0.06931439 0.14493008 0.10082093 0.17643663 -0.0756157 0.13232747 0.13232747
-0.2520523 0.0 -0.29616147 0.27725756 0.49150202 0.44739288 -0.06931439 0.10082093
-0.20794317 -0.025205232 0.47889942 -0.29616147 -0.34657195 -0.13232747 -0.20164186 0.04410916
-0.13232747 0.3969824 0.24575101 -0.025205232 -0.3150654 -0.327668 -0.3969824 0.03150654
0.09451962 0.14493008 -0.34657195 -0.03150654 0.13232747 -0.18273793 0.28355888 -0.09451962
-0.03150654 0.35287327 0.22054578 0.081917 -0.09451962 -0.34027064 0.27725756 0.12602615
00000000: 331b e1f7 dcef 01fc d5d5 0f20 f8d3 2e2a
00000010: 40d2 db39 3b27 d9e4 fa19 b9ff 070f 01ba
00000020: aa0b f6fc d7db 0f27 e6fc 2dc8 2bba 29c5
00000030: ff4d 1010 03e3 08cf 083f cc02 f0fe 1e12
00000040: 29e4 203c 3fdf ee4f cc20 c626 3326 0c34
00000050: d2d9 19e9 fabc cee7 2c07 c51c dded 08e2
00000060: f113 e621 163e 09cb 2e13 13c5 2935 fcb9
00000070: 0e08 813f f5f6 2ec3 2f22 41d5 0bdd 0014
00000080: 3c00 f120 bdf4 e80a 04e5 16db 5a0d 1fe1
00000090: 3903 74f2 218d e2f1 e7fa d730 10fe ea0c
000000a0: da12 00e6 0327 3739 f31f e3b9 3403 22cd
000000b0: 2822 5dc8 bcea d3d0 0126 3525 f41a a9fc
000000c0: 5df5 1710 1cf4 1515 d800 d12c 4e47 f510
000000d0: dffc 4cd1 c9eb e007 eb3f 27fc cecc c105
000000e0: 0f17 c9fb 15e3 2df1 fb38 230d f1ca 2c14

sequential/conv1d/Conv1D i1 [16, 1, 4, 3]
-127 30 95 -95 18 107 119 18
-42 -80 -116 -92 -114 -34 -127 -110
23 66 -118 93 -118 -9 63 -121
-127 19 38 -42 122 -57 61 113
-22 43 -32 -7 59 -3 23 -22
-12 5 3 -127 -37 59 -46 67
-53 -34 -3 -116 -112 -36 -89 -124
80 -93 -127 -63 58 14 -59 127
-36 34 14 -90 -15 107 15 52
119 -82 -85 81 -45 59 127 -23
-86 -76 1 -106 -120 82 -90 -64
94 84 -28 81 59 2 127 -52
-21 98 -109 30 42 -35 -61 78
-86 73 127 -72 -111 69 -34 31
-127 14 -27 -55 78 1 77 -20
3 -1 -45 -29 -10 -116 127 -94
-125 56 59 -9 18 -127 -106 -66
-117 -23 18 -13 -106 -27 47 73
-70 -32 75 -62 54 -14 -79 71
74 62 127 -86 -4 -108 90 -127
33 46 -91 -91 -116 -68 81 20
-114 7 98 -120 30 -116 -8 116
-70 127 -54 -59 77 -21 66 41
109 -26 -38 82 8 -127 65 -90
00000000: 811e 5fa1 126b 7712 d6b0 8ca4 8ede 8192
00000010: 1742 8a5d 8af7 3f87 8113 26d6 7ac7 3d71
00000020: ea2b e0f9 3bfd 17ea f405 0381 db3b d243
00000030: cbde fd8c 90dc a784 50a3 81c1 3a0e c57f
00000040: dc22 0ea6 f16b 0f34 77ae ab51 d33b 7fe9
00000050: aab4 0196 8852 a6c0 5e54 e451 3b02 7fcc
00000060: eb62 931e 2add c34e aa49 7fb8 9145 de1f
00000070: 810e e5c9 4e01 4dec 03ff d3e3 f68c 7fa2
00000080: 8338 3bf7 1281 96be 8be9 12f3 96e5 2f49
00000090: bae0 4bc2 36f2 b147 4a3e 7faa fc94 5a81
000000a0: 212e a5a5 8cbc 5114 8e07 6288 1e8c f874
000000b0: ba7f cac5 4deb 4229 6de6 da52 0881 41a6

sequential/lstm/Read_2/ReadVariableOp1 i1 [64] scale=0.004783172 zero_point=-103
0.028699033 0.23437543 0.19132689 0.14349517 -0.004783172 0.10044661 0.13871199 0.052614894
0.090880275 -0.004783172 0.09566344 0.038265377 0.1195793 0.071747586 0.10522979 0.2248091
1.0331652 1.0427315 1.1001296 1.08578 0.98533344 1.0666474 1.0618643 1.0140325
1.0666474 0.99011666 1.0092493 1.0044662 1.0618643 1.0379484 0.98533344 1.0905633
0.009566344 -0.1195793 0.10044661 0.033482205 -0.009566344 0.009566344 -0.02391586 0.033482205
-0.033482205 0.004783172 0.028699033 0.0 -0.019132689 -0.033482205 0.019132689 0.0143495165
0.028699033 0.25350812 0.19611005 0.13392882 0.0 0.08131392 0.13871199 0.038265377
0.124362476 -0.009566344 0.10044661 0.04783172 0.11001296 0.08131392 0.17697737 0.20089322
00000000: 9fca c1b7 98ae b6a4 ac98 ada1 b2a8 afc8
00000010: 7173 7f7c 6778 776d 7868 6c6b 7772 677d
00000020: 9b80 aea0 979b 94a0 929a 9f99 9592 9d9c
00000030: 9fce c2b5 99aa b6a1 b397 aea3 b0aa bec3

while/MatMul i1 [64, 16] scale=0.01699778 zero_point=0
0.08498891 0.39094895 -0.16997781 0.23796892 0.050993342 0.03399556 0.28896227 -0.23796892
-0.03399556 -0.23796892 -0.03399556 -0.15298003 -0.20397337 -0.08498891 -0.23796892 -0.32295784
0.35695338 0.28896227 0.2719645 -0.4589401 0.20397337 0.101986684 0.2719645 0.30596006
0.2549667 0.28896227 0.32295784 0.06799112 0.101986684 0.101986684 0.5269312 0.0
-0.101986684 0.22097115 -0.74790233 0.101986684 -0.18697558 0.4589401 0.13598225 -0.5099334
0.18697558 0.33995563 0.23796892 0.11898446 -2.158718 0.11898446 0.101986684 -0.2549667
0.06799112 -0.40794674 0.6119201 -0.543929 -0.2719645 -0.03399556 0.101986684 0.6459157
0.4419423 -0.35695338 0.20397337 -0.13598225 0.90088236 0.16997781 0.22097115 0.9688735
0.101986684 -0.23796892 -0.2549667 -0.20397337 0.06799112 0.01699778 0.2719645 -0.16997781
0.23796892 -0.32295784 0.08498891 -0.15298003 0.33995563 0.15298003 -0.01699778 -0.15298003
-0.050993342 0.35695338 0.5099334 0.0 -0.13598225 0.22097115 0.101986684 0.23796892
-0.15298003 0.0 0.03399556 0.20397337 -0.57792455 0.01699778 -0.18697558 0.13598225
-0.23796892 -0.16997781 0.9518757 -0.8668868 -0.35695338 0.15298003 0.13598225 0.42494452
0.37395117 -0.06799112 0.13598225 -0.22097115 0.2719645 -0.32295784 0.15298003 0.40794674
-0.101986684 -0.2549667 -0.23796892 0.23796892 0.13598225 0.18697558 -0.18697558 -0.49293563
-0.15298003 -0.39094895 -0.050993342 -0.23796892 -0.84988904 -0.101986684 0.16997781 -0.08498891
0.49293563 0.35695338 0.28896227 -0.15298003 0.35695338 -0.15298003 0.13598225 0.39094895
0.0 0.15298003 0.101986684 0.06799112 0.13598225 0.30596006 0.37395117 0.2549667
0.16997781 -0.11898446 0.03399556 0.050993342 0.2549667 0.18697558 0.18697558 0.13598225
-0.15298003 0.01699778 0.13598225 -0.15298003 0.20397337 0.33995563 -0.28896227 0.20397337
-0.18697558 -0.06799112 -0.06799112 -0.23796892 -0.16997781 -0.16997781 0.08498891 -0.28896227
-0.35695338 -0.08498891 0.16997781 0.01699778 -1.0538625 -0.08498891 -0.050993342 -0.15298003
0.101986684 0.101986684 0.06799112 0.0 0.28896227 0.16997781 0.01699778 -0.40794674
0.08498891 0.2719645 -0.03399556 -0.101986684 -0.33995563 -0.13598225 0.11898446 -0.20397337
0.32295784 0.37395117 0.2549667 -0.050993342 0.08498891 -0.23796892 -0.050993342 0.23796892
-0.20397337 -0.01699778 0.050993342 0.050993342 1.0538625 0.16997781 0.23796892 -0.22097115
-0.01699778 0.050993342 0.56092674 -0.050993342 0.101986684 -0.2719645 -0.08498891 0.67991126
-0.101986684 0.22097115 0.06799112 -0.06799112 0.5099334 -0.13598225 0.16997781 0.30596006
0.66291344 -0.13598225 -0.08498891 1.3258269 0.5949223 0.33995563 -0.15298003 -0.57792455
-0.39094895 0.13598225 -0.18697558 0.01699778 -0.56092674 0.4589401 -0.22097115 -0.6119201
-0.20397337 -0.15298003 0.01699778 0.71390676 -0.08498891 0.4589401 0.57792455 -0.050993342
0.35695338 -0.5269312 0.32295784 0.2719645 0.42494452 -0.16997781 -0.22097115 0.06799112
00000000: 0517 f60e 0302 11f2 fef2 fef7 f4fb f2ed
00000010: 1511 10e5 0c06 1012 0f11 1304 0606 1f00
00000020: fa0d d406 f51b 08e2 0b14 0e07 8107 06f1
00000030: 04e8 24e0 f0fe 0626 1aeb 0cf8 350a 0d39
00000040: 06f2 f1f4 0401 10f6 0eed 05f7 1409 fff7
00000050: fd15 1e00 f80d 060e f700 020c de01 f508
00000060: f2f6 38cd eb09 0819 16fc 08f3 10ed 0918
00000070: faf1 f20e 080b f5e3 f7e9 fdf2 cefa 0afb
00000080: 1d15 11f7 15f7 0817 0009 0604 0812 160f
00000090: 0af9 0203 0f0b 0b08 f701 08f7 0c14 ef0c
000000a0: f5fc fcf2 f6f6 05ef ebfb 0a01 c2fb fdf7
000000b0: 0606 0400 110a 01e8 0510 fefa ecf8 07f4
000000c0: 1316 0ffd 05f2 fd0e f4ff 0303 3e0a 0ef3
000000d0: ff03 21fd 06f0 fb28 fa0d 04fc 1ef8 0a12
000000e0: 27f8 fb4e 2314 f7de e908 f501 df1b f3dc
000000f0: f4f7 012a fb1b 22fd 15e1 1310 19f6 f304

while/MatMul_11 i1 [64, 16] scale=0.00859887 zero_point=0
-0.025796609 -0.13758191 -0.12898305 -0.103186436 0.0859887 0.27516383 0.18917513 -0.094587564
-0.060192086 -0.18057626 -0.060192086 0.0 0.0 0.30096045 0.24936722 0.11178531
-0.11178531 -0.13758191 0.4213446 0.5417288 0.11178531 0.025796609 0.49873444 0.2579661
0.11178531 0.36115253 0.14618078 -0.21497174 -0.39554802 -0.23216948 -0.01719774 -0.025796609
-0.060192086 -0.051593218 0.103186436 -0.15477966 0.00859887 0.0 -0.19777401 -0.12038417
-0.15477966 -0.26656497 0.00859887 0.15477966 -0.36115253 0.27516383 0.20637287 -0.051593218
-0.060192086 -0.01719774 0.01719774 0.094587564 0.103186436 -0.06879096 0.1719774 0.3439548
-0.11178531 -0.00859887 0.18917513 0.00859887 0.2837627 0.14618078 -0.051593218 -0.23216948
0.03439548 -0.04299435 0.13758191 0.21497174 -0.14618078 0.0859887 0.2837627 0.18917513
0.051593218 -0.00859887 -0.12038417 0.0 -0.01719774 -0.12038417 0.025796609 0.051593218
-0.060192086 0.26656497 -0.11178531 0.23216948 0.27516383 0.18057626 0.4213446 -0.20637287
-0.01719774 -0.41274574 0.11178531 -0.23216948 -0.13758191 -0.26656497 0.57612425 -0.14618078
-0.14618078 -0.051593218 0.0 0.24076834 -0.094587564 0.21497174 -0.051593218 0.24936722
-0.00859887 -0.060192086 0.094587564 -0.1719774 0.00859887 0.0 0.03439548 -0.20637287
0.0 -0.14618078 0.13758191 0.19777401 0.094587564 -0.07738983 0.00859887 -0.20637287
-0.07738983 -0.15477966 -0.18917513 -0.094587564 -0.18057626 -0.16337852 0.16337852 0.0859887
-0.0859887 0.00859887 0.12038417 -0.0859887 0.22357062 0.15477966 0.35255367 0.0859887
0.051593218 -0.2579661 0.03439548 -0.0859887 0.03439548 -0.06879096 -0.12898305 -0.2837627
0.15477966 -0.13758191 -0.094587564 -0.19777401 -0.025796609 0.06879096 0.0 -0.2579661
0.12898305 0.060192086 0.01719774 -0.025796609 -0.051593218 -0.03439548 -0.01719774 0.18057626
-0.00859887 -0.15477966 -0.12038417 0.01719774 0.04299435 0.21497174 0.01719774 -0.16337852
-0.01719774 0.060192086 0.14618078 -0.18057626 0.00859887 0.13758191 0.060192086 -0.24936722
0.0 -0.094587564 0.01719774 -0.14618078 0.00859887 0.15477966 -0.2837627 -0.060192086
0.00859887 -0.14618078 -0.025796609 -0.025796609 0.07738983 0.07738983 0.14618078 -0.12898305
0.18057626 0.22357062 0.07738983 0.24936722 0.060192086 -0.025796609 0.15477966 0.2837627
-0.11178531 -0.15477966 0.30955932 -0.18057626 -0.094587564 -0.025796609 0.20637287 -0.83409035
-0.103186436 -0.27516383 -0.051593218 0.07738983 0.2579661 -0.19777401 0.2579661 0.18057626
-0.15477966 0.103186436 0.060192086 -0.0859887 -0.00859887 -0.04299435 -0.22357062 0.01719774
0.01719774 0.46433896 -0.00859887 0.83409035 0.13758191 0.5675254 0.66211295 -0.30955932
0.12898305 -0.3353559 0.26656497 -0.15477966 -0.41274574 0.01719774 0.3697514 -1.0920564
0.1719774 0.03439548 0.094587564 0.20637287 0.21497174 -0.06879096 -0.07738983 0.07738983
0.2579661 -0.103186436 0.15477966 -0.094587564 0.6707118 -0.53312993 -0.42994347 0.14618078
00000000: fdf0 f1f4 0a20 16f5 f9eb f900 0023 1d0d
00000010: f3f0 313f 0d03 3a1e 0d2a 11e7 d2e5 fefd
00000020: f9fa 0cee 0100 e9f2 eee1 0112 d620 18fa
00000030: f9fe 020b 0cf8 1428 f3ff 1601 2111 fae5
00000040: 04fb 1019 ef0a 2116 06ff f200 fef2 0306
00000050: f91f f31b 2015 31e8 fed0 0de5 f0e1 43ef
00000060: effa 001c f519 fa1d fff9 0bec 0100 04e8
00000070: 00ef 1017 0bf7 01e8 f7ee eaf5 ebed 130a
00000080: f601 0ef6 1a12 290a 06e2 04f6 04f8 f1df
00000090: 12f0 f5e9 fd08 00e2 0f07 02fd fafc fe15
000000a0: ffee f202 0519 02ed fe07 11eb 0110 07e3
000000b0: 00f5 02ef 0112 dff9 01ef fdfd 0909 11f1
000000c0: 151a 091d 07fd 1221 f3ee 24eb f5fd 189f
000000d0: f4e0 fa09 1ee9 1e15 ee0c 07f6 fffb e602
000000e0: 0236 ff61 1042 4ddc 0fd9 1fee d002 2b81
000000f0: 1404 0b18 19f8 f709 1ef4 12f5 4ec2 ce11
